backend/models/embedding_predictor_run2.pth (torch, 33048 bytes, 4 tensors)

fc1.weight f4 [256, 7]
000000 db b3 ab 3e 26 23 01 3f 28 49 3f be 5e b3 7c be
       0.33535656 0.5044426 -0.1868025 -0.24677798
000010 28 df 6f 3d 40 a2 0a bf 82 e3 e6 3d 67 23 0f bd
       0.058562428 -0.54153824 0.112738624 -0.03494587
000020 70 9a e2 be 4a 57 31 3f 50 84 a6 bd d1 56 ba be
       -0.4425845 0.6927382 -0.08130705 -0.3639436
000030 58 09 0e be e2 da 38 be a1 7f c8 3d a2 ec 16 3f
       -0.13870752 -0.18052247 0.09789968 0.58954823
000040 f4 a3 55 bf 0e 16 1d 3e 9a 1d c6 3d 88 47 27 3c
       -0.834533 0.15340444 0.09673615 0.0102099255
000050 16 b7 b4 3e b4 20 13 bf b9 3e a4 3e f2 92 04 3f
       0.35295933 -0.57471776 0.32079104 0.5178672
000060 8a be 5e be 78 04 18 bf 47 cb 8d be ea 72 c9 bd
       -0.21752372 -0.5938182 -0.2769415 -0.09836371
000070 fe 47 56 be d9 f2 a4 bd a1 38 d5 3e f6 4b 9a bd
       -0.209259 -0.08054132 0.41644767 -0.0753402
000080 f6 4b 00 3f ca e4 82 3e 7e 7a 08 3f d0 9c b3 3e
       0.5011591 0.25565177 0.5331191 0.35080576
000090 da 11 10 be f6 1b 0c 3f 0f 96 99 bd 43 27 92 3e
       -0.1406931 0.54730165 -0.074993245 0.2854558
0000a0 ed 41 ed be 6a 20 fb be 8e d5 de be ea 33 b6 3e
       -0.4633936 -0.49048167 -0.43522304 0.35586482
0000b0 ca e7 bf be 11 ed 8e 3d 2e 54 e1 be 83 dc ba 3c
       -0.3748153 0.069788106 -0.44009537 0.022810226
0000c0 b3 b4 8b be 6d 4c 95 be cd 18 af 3e 07 1d 00 bd
       -0.272863 -0.2915987 0.3419861 -0.031277683
0000d0 2d 27 a0 3e 67 05 22 3e 47 f9 c6 3e e2 89 35 3c
       0.3127989 0.15822373 0.3886206 0.011080237
0000e0 03 37 11 be 81 0b 93 3e f7 ec c7 3e 0d ce e5 3c
       -0.14181142 0.28719714 0.39047977 0.028052354
0000f0 49 8b f3 3e f9 dc af be 9d 05 03 bf 62 f9 0b 3f
       0.47567204 -0.34348276 -0.5118044 0.546774
000100 b7 ac d2 3e 71 d9 08 be 29 4f 0a bf d1 1b cb 3e
       0.41147396 -0.13364197 -0.5402704 0.3966966
000110 15 7f 74 bd 03 1e e0 be 53 30 17 3e 94 7f 77 3e
       -0.059691507 -0.43772897 0.14764528 0.24169761
000120 1f f9 b7 3e a7 63 70 3e 96 04 cd 3e e9 c3 1f be
       0.35932252 0.23475514 0.4004256 -0.15602078
000130 b4 0a fa 3e 4a 75 72 be 43 5a d9 ba 26 56 0c bf
       0.4883629 -0.23677555 -0.0016582686 -0.5481895
000140 78 0d fa 3d a1 47 c8 be f8 ac 10 3e 18 56 84 3c
       0.122096 -0.3911715 0.14128482 0.016154334
000150 2c ca e6 be e6 7f dc be 57 46 2d be fc 42 d1 3e
       -0.4507612 -0.4306633 -0.16921364 0.40871418
000160 b6 55 10 3f fe 59 30 bf ed 7b ab 3d d2 ff 02 bf
       0.56380785 -0.6888732 0.08373246 -0.511716
000170 83 c6 7a bc 15 0f 2d bf 0f 61 5c be 0f 2a 3a 3e
       -0.015306118 -0.6760114 -0.215214 0.18180107
000180 ec 32 12 be 6f 0f 05 bd 01 2a c4 bd 79 71 fc 3d
       -0.14277238 -0.03248542 -0.09578324 0.12326331
000190 3d 40 bb 3d 51 f0 cd bd 65 c4 3d 3d 91 79 60 3f
       0.09143112 -0.10055602 0.046329875 0.87685496
0001a0 5e 14 f3 be 8b c0 c0 be 4e 26 d0 3e 0d ab a8 3e
       -0.47476476 -0.376469 0.40654224 0.32943
0001b0 9a 87 1d 3f 2e 5e 62 3e c1 5a 97 bc f8 04 11 bf
       0.61535037 0.22106239 -0.018475892 -0.56648207
0001c0 c8 47 8a be 5d e9 76 3e f2 74 dc 3e 68 ad 6d be
       -0.2700789 0.24112459 0.43057972 -0.2321068
0001d0 e0 19 0e 3d 89 57 a8 3e 86 4b 19 3e 0c 99 fe 3e
       0.034692645 0.32879284 0.14970216 0.4972614
0001e0 8f 50 bf be 39 ed 0b be 4c 86 bf bc cc d9 48 3e
       -0.3736615 -0.13664712 -0.023379467 0.19614333
0001f0 2f dc d3 be 7d b5 bd 3d 7e f1 83 be ac 82 c5 3e
       -0.41378924 0.09263132 -0.2577018 0.38576257
000200 ef e1 af be c8 57 f0 bc 28 77 96 be c1 e6 53 be
       -0.3435206 -0.029338732 -0.29387784 -0.20693494
000210 f5 96 87 be 79 70 c0 be bb db ed be f6 cd bc be
       -0.2648236 -0.3758581 -0.46456704 -0.36875886
000220 0e 73 14 bf 72 7a 64 3d eb 82 ea be af c1 b7 3e
       -0.5798806 0.055780835 -0.45803007 0.35889956
000230 9d af 98 3e ae ae 18 bf 42 45 81 bc 11 ef 5a bd
       0.29821482 -0.5964154 -0.015780095 -0.053450648
000240 42 a4 a5 be 06 89 3b 3d ec 92 f8 3d c6 16 bb 3d
       -0.3235188 0.045784973 0.12137398 0.09135203
000250 72 6d e7 be 00 b4 d3 be a4 70 42 be db 71 8d be
       -0.45200688 -0.41348267 -0.18988281 -0.27625927
000260 3e 95 81 3e ca 00 1b bf 20 5d fb bd 60 53 d0 bd
       0.25309175 -0.6054808 -0.122736216 -0.101721525
000270 d4 29 ba bd 10 95 c1 be 17 78 f8 bd 63 b2 5b 3e
       -0.09090009 -0.37809038 -0.1213228 0.21454768
000280 10 b6 22 bf a2 c3 c4 3d 8e 65 d6 3e b3 dc 7c 3e
       -0.63559055 0.096076265 0.41874355 0.24693565
000290 ff 66 0d 3f 92 66 8e 3d c3 97 b2 3c 79 ce d6 3e
       0.55235285 0.069531575 0.021800881 0.419544
0002a0 47 ea 48 3d 48 86 73 bd 21 b6 16 bc ea 56 d2 3e
       0.04905155 -0.059454232 -0.009198696 0.41081935
0002b0 8d b9 42 3d 31 2e 0b 3d 9b 77 04 3f 46 f7 2b be
       0.047540236 0.0339796 0.51745003 -0.16793546
0002c0 06 e4 df be 44 d3 58 3e c5 64 56 bd 33 a7 df 3e
       -0.43728656 0.21174341 -0.052342195 0.4368225
0002d0 49 40 59 3d 1f ec 04 bf 05 29 a6 3e df bd 01 3f
       0.053039823 -0.5192279 0.3245317 0.50680345
0002e0 4b 40 9c bd e0 7a c4 be e0 bb 82 3e 75 4f ed 3e
       -0.076294504 -0.38374996 0.25533962 0.46349683
0002f0 33 2b b5 3e 08 52 d0 be 91 97 56 be 03 27 aa be
       0.3538452 -0.40687585 -0.20956255 -0.3323289
000300 e9 1d ae bb c0 32 12 3f e2 eb 0b bb 5a 99 00 3f
       -0.005313624 0.5710869 -0.0021350314 0.50233996
000310 12 40 81 3e 8e e1 cf 3e 66 6e e6 3e 0c de 93 3d
       0.25244194 0.40601772 0.45006102 0.072200865
000320 b4 65 fd 3d 6e 43 02 3e 0f 42 28 bf a2 d6 05 bf
       0.12372914 0.12721035 -0.657258 -0.5228063
000330 26 48 12 be ca d2 ea 3e 3f 71 aa 3e 32 f9 af 3e
       -0.14285335 0.45863944 0.33289525 0.34369808
000340 ed 8f 29 bf 95 16 a1 3e 61 d6 90 be e4 73 26 be
       -0.6623524 0.3146254 -0.28288558 -0.16255146
000350 1c 18 b6 3d f7 ce 52 be 2d e0 e7 3d 09 c3 5e be
       0.08891317 -0.20586763 0.11322055 -0.21754088
000360 4f da 08 3f 89 e7 15 3f cf c5 a2 3e e0 2b 89 3e
       0.5345811 0.5855642 0.3179154 0.26791286
000370 a1 1f a9 bc d7 27 00 bf 3e 5c 13 be 6e 11 b4 3e
       -0.020644965 -0.5006079 -0.14390656 0.35169548
000380 c6 35 1b be 76 15 09 3d ac d1 f5 bd 52 60 5e 3d
       -0.15157232 0.033467732 -0.12002882 0.054291077
000390 f5 06 e8 be bb 23 b2 3d c8 47 d7 3b 3d e3 d4 be
       -0.45317808 0.08698221 0.0065698363 -0.4157962
0003a0 d4 d6 40 be b1 63 bb be 9f 74 98 3d 5e 6c ed 3e
       -0.1883195 -0.36599496 0.07444119 0.4637174
0003b0 ff c9 85 bd 82 a0 e1 3e 14 b9 f7 3e 77 af 81 be
       -0.06532668 0.4406777 0.4838339 -0.25329182
0003c0 d5 05 f8 bd c3 ac 4a be 6f 01 12 bf ce 35 17 be
       -0.12110487 -0.19792466 -0.5703344 -0.14766619
0003d0 a8 fe 64 3e d9 11 af 3e fd ae 9f 3e 69 9b aa 3e
       0.22362769 0.34193304 0.31188193 0.33321694
0003e0 d1 c5 a4 be ac aa a4 be 5e 85 d3 be 57 df 88 3e
       -0.32182172 -0.32161462 -0.4131269 0.26732895
0003f0 80 cd 14 be fa f1 77 3d 94 3b 49 3e 07 21 49 be
       -0.14531517 0.0605335 0.19651634 -0.19641505

fc1.bias f4 [256]
000000 fa 3e 1a 3c b9 69 94 3e 15 43 1e 3f af 71 ae 3e
       0.009414429 0.2898691 0.6182111 0.3407111
000010 bb c5 d5 3d f7 8c ee bd 20 3a c4 3e fa 7b 12 3e
       0.10438105 -0.11647981 0.38325596 0.14305106
000020 a6 98 9b 3e c9 90 54 be f4 4d d2 3c 6f 17 0e 3e
       0.303899 -0.20758356 0.025671937 0.13876127
000030 3e af 4a 3e 0b 50 9e 3e 64 8b 16 3f 1b ed a1 3e
       0.19793412 0.30920443 0.58806443 0.3162621
000040 67 52 04 be 93 3e 6a 3e d3 cd ec 3e 2c 81 16 be
       -0.12922059 0.22875433 0.4625078 -0.14697713
000050 c3 c9 d6 3e 71 6b da 3e 61 42 ed 3e 7f 2f 8f 3e
       0.41950807 0.42660096 0.46339706 0.27965924
000060 d5 cb 53 3d 35 1b 0e be 49 e9 5a 3e a4 03 4d 3e
       0.05170806 -0.13877566 0.21378054 0.2002092
000070 3f 98 15 3f 4d d8 fa bd 5b e0 36 3e 83 54 bc 3d
       0.58435434 -0.12248287 0.17859022 0.09195807
000080 84 0d 98 3e 56 54 72 3e d1 c6 1d 3e 18 a1 ca 3e
       0.29697812 0.23664984 0.15407874 0.3957603
000090 82 81 26 3b 52 e0 99 3e 46 1c 06 3f ae 86 0c be
       0.0025406783 0.30053955 0.5238689 -0.13723251
0000a0 72 ec d6 3e 23 79 5f be 85 9e f6 3d d8 c5 e1 3e
       0.41977268 -0.21823554 0.12041954 0.44096255
0000b0 d3 a2 5c bd 9a 42 de 3e 81 12 ab 3e 64 ac 9f 3e
       -0.05386622 0.43410188 0.33412555 0.3118621
0000c0 c2 81 09 be 4d 84 b0 3e e1 99 78 3e 9a 4e d4 bd
       -0.13428405 0.34475937 0.2427745 -0.103665546
0000d0 8e 86 f1 3e 39 fd 9f be 0d e5 a5 39 fb fb 5f be
       0.4717297 -0.3124788 0.0003164191 -0.21873467
0000e0 dd 2c c8 3d 99 95 ea 3e 6a cb f3 3e 15 15 be 3e
       0.09774182 0.4581726 0.4761613 0.3712546
0000f0 45 c2 06 3f aa 80 e3 3e 4f ce b3 3e 93 fa 89 3e
       0.5264018 0.444341 0.35118338 0.26948985
000100 e5 72 21 3f 55 5d a8 3e 03 f8 04 3f a1 d8 3f 3e
       0.6306594 0.32883707 0.51940936 0.18734981
000110 5c c1 82 3e df 0a 14 bd c9 8e b2 3e dc 01 86 3e
       0.25538146 -0.03614318 0.3487456 0.26173294
000120 e5 02 21 bd 97 a4 3d be c7 b2 ce 3e 91 c6 6a bd
       -0.0393094 -0.18519817 0.4037077 -0.057318274
000130 53 54 0d 3e 1c 45 f7 3e 21 3d fc 3b 84 e5 d7 bd
       0.13801698 0.48294914 0.007697717 -0.105418235
000140 8c 0c c1 3e 2c f5 08 3f 3f 3a 3c 3e a2 95 9c 3e
       0.37704885 0.534991 0.18381594 0.3058291
000150 ca 47 d3 3e 0e ef a9 3e 00 01 20 3f 35 6a 63 be
       0.41265708 0.33190197 0.62501526 -0.22208484
000160 45 0a a0 3e 19 05 82 3d 19 3c 75 3e a3 b4 90 3c
       0.31257835 0.063486286 0.23948707 0.01766426
000170 69 8f d0 3e 32 e8 93 3e 97 32 b0 3e ad ba 12 3f
       0.40734413 0.28888088 0.34413597 0.57316095
000180 8f ea 65 3e c6 75 d5 3e a5 f2 98 be d9 1c a3 3d
       0.22452758 0.41691417 -0.29872623 0.07964487
000190 c9 ea 80 3e 2b 17 4b bc 20 7a a3 3e a9 e2 19 3e
       0.25179127 -0.01239566 0.3192911 0.1502787
0001a0 2c 24 c2 3e cc 7b e4 3e f4 fa 5e be 7b 50 04 3f
       0.37918222 0.446257 -0.21775419 0.51685303
0001b0 01 54 4e be 3f 55 58 3e e3 3b d2 bd 4c bd 06 3e
       -0.20149232 0.21126269 -0.10265329 0.13158149
0001c0 79 d9 24 3d 1f 46 bc 3e 81 8f 8e 3e 35 77 a3 3d
       0.04024646 0.36772248 0.2784386 0.07981721
0001d0 f1 cd 82 3e 0c 2e b6 be 58 42 d8 3e a1 a8 b6 3e
       0.25547746 -0.35582006 0.42238116 0.3567553
0001e0 2c 33 99 3e 4b c2 5c be 1a fc 7c 3e 99 f9 8d 3d
       0.29921854 -0.21558492 0.24705544 0.069323726
0001f0 a7 0b 53 3e 4c b2 63 3e 74 40 c1 3e bb fb 8e 3d
       0.20609914 0.22235984 0.37744486 0.069816075
000200 e3 d2 91 bd 34 27 6a 3e 1f cd 8a 3c 7a 1c b7 3e
       -0.071203016 0.22866517 0.016943512 0.35763913
000210 12 f1 03 3f 4c 71 a7 3e e0 48 04 3f dd b0 24 3f
       0.5153972 0.32703626 0.516737 0.6433237
000220 29 b1 a2 3e 54 c1 5d 3e 3e 9f 5b 3d 97 fd 29 3e
       0.31775787 0.2165578 0.053618662 0.16600643
000230 e2 a0 d2 bd 56 35 60 be 19 89 a7 3c 47 cf 8b 3e
       -0.10284592 -0.21895346 0.020451115 0.27306578
000240 42 cd bb 3e c4 a1 f9 3e 12 42 b5 bd c6 82 d8 bc
       0.36680037 0.4875623 -0.088504925 -0.026429545
000250 4b 25 71 3e 34 a1 8a be 7e 0a 72 bd 18 52 0b 3d
       0.23549382 -0.27076113 -0.059092037 0.034013838
000260 00 fc f2 3e 53 74 2e 3e 31 d6 c6 be 9c 2a ca 3e
       0.47457886 0.17036562 -0.3883529 0.39485633
000270 99 60 15 be f2 f3 bb 3e 12 d9 97 3e b3 b4 6d bd
       -0.1458763 0.36709553 0.296578 -0.058033656
000280 0e ad 61 3e 2f de b1 3e bf 72 05 3f 9d 83 a1 3d
       0.22038671 0.34739825 0.52128214 0.07886431
000290 69 c9 ba 3e 72 52 f2 3e c6 c5 92 3e 5c a5 ad 3e
       0.3648179 0.47328526 0.28666514 0.33915222
0002a0 69 4c 9b 3e a0 20 5e be 23 8a 98 3d 69 47 90 3e
       0.30331734 -0.21692133 0.074482225 0.28179482
0002b0 a2 31 e4 3e e3 44 61 be 8f b2 64 bc 2b d1 0e 3f
       0.44569117 -0.21998934 -0.013958587 0.55787915
0002c0 d2 60 6b be 1c 82 8e 3d b0 e4 e1 bc f2 09 f8 bd
       -0.22986153 0.0695841 -0.027574867 -0.12111272
0002d0 95 69 d6 bd 00 e9 e1 bd 07 c6 e4 3e c0 67 49 be
       -0.10469357 -0.11030769 0.44682333 -0.19668484
0002e0 e5 c0 51 be 78 14 64 3e 0e e9 f9 3e 82 5b 13 3f
       -0.2048374 0.22273433 0.4881062 0.57561505
0002f0 79 16 1f 3f 1d 72 c1 bd 5c 05 40 3e 04 67 fb 3e
       0.62143666 -0.094455935 0.18752044 0.49102032
000300 7a 39 af 3e 90 1a 38 3e 66 78 05 be ce 3a 11 bd
       0.3422354 0.17978883 -0.1303421 -0.03545647
000310 61 10 91 bd de 1c 8e 3d 77 5e f1 3e ca 0e 53 3e
       -0.07083202 0.069391 0.47142383 0.2061111
000320 32 ab d8 3e ad 62 b3 3e 52 5c e7 3c 7d ce 95 3e
       0.42318112 0.3503622 0.028242264 0.292591
000330 09 1b de 3e 34 8e 7b 3e 00 08 a9 3e 7f 8d fc 3e
       0.4338 0.24565965 0.33013916 0.49326703
000340 c2 98 3c 3e d8 fa 8e be b1 5e aa 3e 78 c5 18 3e
       0.18417647 -0.27925754 0.3327537 0.14919078
000350 e9 8f a5 bd e2 d2 e1 3d b2 bf c2 3e 46 6e 11 be
       -0.08084089 0.11026551 0.38036877 -0.14202222
000360 3e b9 51 be d6 36 02 3f 1f 2d 82 3e ed cb 11 3d
       -0.2048082 0.50864923 0.2542505 0.03559487
000370 e9 c9 99 bd da 49 a5 3e a8 7d f6 3e f1 8a 0e be
       -0.075092144 0.32282907 0.48142743 -0.1392019
000380 27 cd 56 bc ef a1 d4 3c 32 12 bb 3e c4 af 9a 3c
       -0.013110436 0.025956122 0.3653732 0.01888264
000390 a8 4e bf 3e 5c d7 f9 bd de 04 1c 3f ed f7 b6 3e
       0.37364697 -0.1219928 0.60944927 0.35736027
0003a0 e8 04 2a be 42 ae 40 be 56 61 9a 3d 52 ea 6d 3e
       -0.16603434 -0.18816474 0.075380966 0.23233917
0003b0 31 a6 89 3e b2 30 09 3f 0d 26 fd 3e 1d df 06 be
       0.26884606 0.5358993 0.49443093 -0.13171048
0003c0 a6 a0 dd 3e f5 35 a2 3e 37 18 ab 3e d3 19 02 be
       0.43286628 0.3168179 0.33416912 -0.12705164
0003d0 3f e2 37 3e ed f0 27 3e 91 9d 58 bd 4b a6 8c 3e
       0.179574 0.164005 -0.052884642 0.2747062
0003e0 e8 32 db 3e 63 11 a2 3e ce 0e 9c be 49 40 bb 3e
       0.42812276 0.3165389 -0.30480045 0.36572483
0003f0 bf 6b a8 3e 3d 4a eb 3e 1e a4 ca 3e c4 24 30 3e
       0.32894704 0.45955077 0.39578336 0.17201525

fc2.weight f4 [22, 256]
000000 a7 2d 7c bd 19 81 27 be b0 e0 9c 3e e6 ed 1c 3e
       -0.061566975 -0.1635784 0.30640173 0.15325126
000010 07 30 7b 3e f3 96 28 3e 4e 8d ed bd cb 47 32 3e
       0.2453004 0.16463833 -0.11599217 0.174102
000020 ac 30 38 3e b4 25 4c 3d 2e 76 13 3e 76 c0 ec bd
       0.17987317 0.049840644 0.1440055 -0.115601465
000030 fc 0b f6 bd 50 65 40 be 61 14 53 bd b4 25 c0 3d
       -0.120140046 -0.18788648 -0.051533107 0.09382191
000040 0d 27 4a 3e 19 43 22 be 3f 98 3a be 54 ea 4f 3e
       0.19741459 -0.15845908 -0.1822214 0.20304233
000050 8c 16 08 be 94 94 3c be d7 2f 5a be 87 e9 89 3e
       -0.13289851 -0.18416053 -0.21307312 0.2693598
000060 ad a0 0d 3e 2e 9a 2e 3d 9e 8d 38 3e b9 06 7f 3e
       0.13830824 0.042627506 0.18022773 0.24904908
000070 9b aa 33 3e 62 1b 66 3e a9 10 93 3e 4f d6 57 3d
       0.1754555 0.22471383 0.28723648 0.052694615
000080 9d 19 06 be 36 08 38 3e b5 00 d1 bd df 97 af 3d
       -0.13095708 0.17971882 -0.10205213 0.08573889
000090 b7 57 67 3e a3 85 14 3e 28 87 17 be 04 23 5b 3e
       0.22592054 0.14504103 -0.14797652 0.21400076
0000a0 ba 48 53 be c6 44 76 3e 85 90 33 3e 20 8b e8 3d
       -0.20633212 0.24049672 0.17535599 0.11354661
0000b0 53 11 20 bd bd cc 44 be 2e 57 2a be a6 b0 52 be
       -0.03907902 -0.19218726 -0.16634819 -0.20575199
0000c0 ee f6 d3 3d a2 26 3c be 3c 13 e8 3d d6 b0 91 bd
       0.103498325 -0.18374112 0.11331794 -0.07113807
0000d0 8f 8b 16 be 70 f5 b7 bb 0c e2 5f 3e 36 da db bc
       -0.14701675 -0.005613975 0.21863574 -0.02683745
0000e0 0f 78 48 3e d7 d6 3d be 51 34 32 be a1 e2 a5 3e
       0.19577049 -0.18538986 -0.1740277 0.32399467
0000f0 d5 06 00 bd 35 c9 28 3e 21 7f 61 3e c4 15 20 3e
       -0.031256516 0.16483004 0.22021152 0.15633303
000100 a1 ee 24 be 0c 90 53 be ac d5 30 be 25 af 34 3e
       -0.16106655 -0.20660418 -0.1726901 0.17644937
000110 cb 40 1d be 25 fc c1 3d 1d 44 3b 3e df 8b 3b 3e
       -0.15356748 0.09471921 0.18287702 0.18315075
000120 ac b3 e7 3d 75 52 66 3e c8 50 30 be fc 9b 0f be
       0.113135666 0.22492392 -0.17218316 -0.14024347
000130 e5 d7 6b be 9c b4 77 be 01 9f 48 3e af 1a 80 be
       -0.23031576 -0.24189991 0.19591905 -0.25020358
000140 20 71 41 3e 06 20 47 be 9a cc 1f be 1f a8 6f be
       0.1889081 -0.1944581 -0.15605393 -0.23403977
000150 93 d6 1a be af 85 e7 3d c8 3b 11 3e a6 75 ca 3d
       -0.15120916 0.11304795 0.14182961 0.09885721
000160 30 d8 6b 3e 9c 8d e9 3d ce e9 98 3d 07 bf 29 be
       0.23031688 0.11403963 0.0746647 -0.16576777
000170 ca f0 5d be fe fd 0d be 70 95 28 3e a6 4e 51 be
       -0.21673885 -0.13866422 0.16463256 -0.20440158
000180 8b 50 6f 3d 43 e5 24 bd 43 74 cb 3e 14 3d fd 3d
       0.05842642 -0.040257704 0.39737138 0.12365165
000190 20 03 3b be 88 46 4a be c5 ab 36 be 33 99 04 3e
       -0.18262911 -0.19753468 -0.17838962 0.12949066
0001a0 17 9b 9c bd 8c b0 6b be 8b 03 4b be da 42 73 3e
       -0.076467685 -0.23016566 -0.1982557 0.2375597
0001b0 e0 de 2a 3e bd c7 70 3e 5c 45 07 bd 94 da dc bd
       0.16686583 0.23513694 -0.03302513 -0.10783878
0001c0 60 0e 57 3e eb 86 61 3d 72 60 56 3e 61 b5 63 be
       0.21001577 0.05506031 0.20935228 -0.2223716
0001d0 1a 88 05 3d a5 a0 92 3d 10 68 35 3e 5c e9 b8 bd
       0.0326005 0.07159547 0.17715478 -0.09028885
0001e0 b3 16 1b 3e 78 c9 ac 3d 4f df 81 3e 69 90 32 be
       0.15145378 0.084368646 0.25365683 -0.174379
0001f0 f9 2a 29 be 36 e4 66 3e cb f9 80 be d6 20 ff 3d
       -0.16520299 0.22547993 -0.25190577 0.12457435
000200 de 96 48 be f6 b2 7b bd 81 48 2d be f0 e0 13 3e
       -0.19588801 -0.061449967 -0.1692219 0.14441276
000210 a4 c2 df 3d 88 e8 1a 3e ba 0c 8d 3c 07 64 03 3e
       0.10925797 0.15127766 0.017217983 0.12831126
000220 81 18 1c be ca 0f ce bd 67 a5 6b 3e 99 a1 0e be
       -0.15243722 -0.10061605 0.23012315 -0.13928832
000230 09 d3 8f be ac d1 3a be 6c ac 7d 3e 07 22 71 be
       -0.28090695 -0.18244046 0.24772805 -0.23548137
000240 0d ff 2c 3e f0 3f 4a be 85 a1 10 be 3a 3b 46 3e
       0.16894169 -0.19750953 -0.14124115 0.1935853
000250 33 1f 10 be 3c 0b 2b 3e cd 22 e2 bd 5c 31 e0 bd
       -0.14074402 0.16703504 -0.11041794 -0.109469146
000260 77 20 d2 bd fa 68 3f be 8c ce 12 be f1 50 28 3e
       -0.102600984 -0.18692389 -0.14336604 0.16437127
000270 84 a2 28 be 0a db 52 3e 03 16 43 be a4 8c 2a be
       -0.16468245 0.2059137 -0.19051366 -0.16655213
000280 57 a1 45 be 0e ef 00 be 90 92 55 be 06 03 34 be
       -0.19299828 -0.12591192 -0.2085669 -0.17579278
000290 65 41 cb 3d c0 21 ba 3d 0d 33 4e 3e cf a1 3a be
       0.099245824 0.090884686 0.20136662 -0.18225788
0002a0 b8 66 0e 3c a7 54 05 3c 6d 2b 03 be bf e6 7d 3e
       0.008691482 0.0081378585 -0.12809534 0.24795054
0002b0 7e 78 70 3d 8a 77 78 be a4 a7 3f 3e 60 f9 24 be
       0.05870866 -0.2426435 0.18716294 -0.16110754
0002c0 b2 bf 44 3e 99 3f 47 3e 63 d0 60 3e b5 48 fe bd
       0.19213751 0.19457854 0.21954493 -0.124162115
0002d0 b8 12 92 3d 64 f8 37 3e 19 7e 2d 3e 0e 3e b0 bd
       0.071324766 0.17965847 0.16942634 -0.08605586
0002e0 20 7c eb 3d 6f 14 5e be e7 3f 3b be c5 77 40 be
       0.11498284 -0.21687482 -0.18286096 -0.18795688
0002f0 00 94 6f 3e 03 52 62 bd 16 3d 17 be 0f 06 83 3e
       0.23396301 -0.055253994 -0.14769396 0.2559056
000300 3b 39 2a bd 95 8a 26 be cf 0a 2d 3e 45 88 f0 bd
       -0.041558485 -0.16263802 0.16898654 -0.11744741
000310 96 ef 1e 3e ff 2d 95 be b2 ae 4c be e8 85 2c be
       0.15521082 -0.29136655 -0.19988516 -0.16847956
000320 0d 6e 32 be 22 da dd bd 21 b8 48 3e 33 66 bb 3c
       -0.17424794 -0.10832621 0.1960149 0.02287588
000330 8e be ce 3c 10 22 4c 3e 52 39 4b be 30 5c 02 be
       0.025237348 0.19934869 -0.19846085 -0.12730479
000340 c1 ec 57 bd 31 bf 5f 3e 68 63 3a 3e e8 fa 14 3e
       -0.05271602 0.21850277 0.18201983 0.14548838
000350 7f a0 06 3e 39 88 b6 bd dd 4a 4c be 72 6d 3d be
       0.13147162 -0.08912701 -0.19950433 -0.18498781
000360 b8 15 0b 3e 61 f9 fc bd 8b 43 2c be d0 4b 2a 3d
       0.13582504 -0.12352253 -0.1682264 0.041576207
000370 11 e6 03 be 66 bd ed bd 21 c3 5a 3d ae a7 92 bd
       -0.12880732 -0.116083905 0.053408746 -0.071608886
000380 81 c1 6d be 47 bd 4a be e7 dc 11 be 4a 18 73 bd
       -0.23218347 -0.19798766 -0.14244424 -0.059349336
000390 a5 3a 26 3e f3 59 7c 3e bc 71 17 be b2 81 24 bd
       0.16233309 0.24643688 -0.1478948 -0.04016275
0003a0 ea e5 87 be 1f 0d 1f be 43 59 e3 3d 76 0a 60 be
       -0.26542598 -0.15532349 0.1110101 -0.2187899
0003b0 56 39 22 bd a6 a4 cd bd 77 c0 1d be 99 39 4d be
       -0.03960546 -0.1004117 -0.15405451 -0.20041503
0003c0 da dc 80 be d1 57 3e bd 02 01 e8 3c 11 93 ba 3d
       -0.25168496 -0.046470467 0.028320793 0.09110082
0003d0 53 a6 e3 3d ce 5f 77 3e db 5b 3f be cb 7a 3f be
       0.11115708 0.2415764 -0.18687384 -0.18699186
0003e0 0a 56 4f be 10 a4 3a 3e bf 90 1c 3e ef 5b 6f be
       -0.20247665 0.18226647 0.15289591 -0.23374914
0003f0 c0 11 35 3e 24 12 5c be 73 c4 14 3d dd ec 2d be
       0.17682552 -0.21491295 0.03632016 -0.16984887

fc2.bias f4 [22]
000000 17 43 f0 bd 6d 47 3a be f2 a9 98 3d c5 e8 0b be
       -0.11731546 -0.1819131 0.074542895 -0.13663013
000010 d2 b6 2e 3d a3 d8 42 3e 04 8c c2 3d d8 60 8f bc
       0.04265482 0.19027953 0.09499362 -0.017502233
000020 e4 30 6a 3e 76 19 43 3d a4 dd c8 bd 72 ae 63 3e
       0.22870213 0.047631703 -0.098078996 0.22234514
000030 9b 61 03 3e b7 af 96 3d aa 93 89 bd 74 38 79 be
       0.12830202 0.07357734 -0.06717618 -0.24337941
000040 5b d3 8b 3e 90 e0 8f 3d 70 10 0e 3e 01 d0 db bd
       0.2730969 0.07025254 0.13873458 -0.10733033
000050 d1 5a a1 3d 7b 52 2f bc
       0.0787865 -0.010700817
