backend/models/embedding_predictor_run1.pth (torch, 33048 bytes, 4 tensors)

fc1.weight f4 [256, 7]
0	0xbe3a841b	-0.18214457
1	0x3f004cf0	0.501174
2	0x3e29f1f0	0.16596198
3	0x3eaa99d7	0.33320495
4	0x3e93e7f7	0.28887913
5	0xbd171729	-0.03688732
6	0x3e8a3b52	0.26998383
7	0xbee00db2	-0.4376045
8	0xbf173f39	-0.59080845
9	0xbed90bf6	-0.42391938
10	0x3e7350d7	0.23761307
11	0x3f17d6cc	0.5931213
12	0xbf053c43	-0.5204508
13	0xbdb136d1	-0.086530335
14	0xbe1eed6b	-0.15520255
15	0x3db259fa	0.08708568
16	0x3f025b4e	0.5092057
17	0xbeb1926f	-0.34682032
18	0x3e977e3f	0.29588506
19	0xbd9180b7	-0.071046285
20	0xbf057d59	-0.5214439
21	0x3e90553a	0.28190023
22	0x3e97aedb	0.29625592
23	0xbf0255dc	-0.5091226
24	0xbee3a0af	-0.4445853
25	0x3e01380d	0.12619038
26	0x3edbb743	0.42913255
27	0xbef24ce3	-0.47324285
28	0xbe317e53	-0.17333345
29	0x3ea3b50e	0.3197407
30	0x3e1fc1e9	0.15601315
31	0x3e0fa540	0.14027882
32	0xbecb6d3e	-0.39731783
33	0xbd22b337	-0.039721694
34	0xbe6edfc0	-0.23327541
35	0x3f167bcc	0.5878265
36	0xbe289893	-0.16464452
37	0x3ee1902e	0.44055313
38	0x3e89a054	0.26880133
39	0x3eb06565	0.34452358
40	0x3d966ae7	0.07344609
41	0x3e3887ab	0.18020503
42	0x3f0649a0	0.5245609
43	0xbe5c8927	-0.21536694
44	0xbe9a106f	-0.30090663
45	0x3eb122e7	0.3459694
46	0xbcf2fe49	-0.029662268
47	0x3d8e4f6d	0.06948743
48	0xbe9202e6	-0.28517836
49	0x3d7d56f6	0.06185051
50	0x3e9faa30	0.3118453
51	0x3f0092f6	0.50224245
52	0xbdc70953	-0.09718575
53	0xbe3bb902	-0.18332294
54	0xbd99bf85	-0.075072326
55	0x3e9dab09	0.30794552
56	0x3efe9196	0.49720448
57	0xbccb1e2f	-0.024794666
58	0xbe923c4f	-0.28561637
59	0x3eb87ab5	0.36031118
60	0x3ebe3d09	0.3715594
61	0x3efcb187	0.49354193
62	0xbe909cb2	-0.2824455
63	0x3df6cd82	0.12050916
64	0xbf0b1230	-0.54324627
65	0xbf1de8b3	-0.61683196
66	0xbebbcd77	-0.36680195
67	0x3ed282dc	0.41115463
68	0x3ea2fc53	0.31833133
69	0xbf092fcd	-0.53588563
70	0x3e03f802	0.12887576
71	0xbf027321	-0.5095692
72	0xbf040059	-0.5156303
73	0x3ed0d695	0.40788713
74	0xbf02e864	-0.5113585
75	0xbe94b838	-0.29046798
76	0x3f0c49c0	0.54800034
77	0xbec04f66	-0.37560576
78	0x3df7abb0	0.12093294
79	0x3e6b43ec	0.22975129
80	0xbe9a8fec	-0.3018793
81	0x3e87e043	0.26538286
82	0x3de9aacd	0.11409531
83	0xbe7914fc	-0.24324411
84	0xbe392f5c	-0.18084472
85	0xbe3d8d63	-0.18510966
86	0xbf07bd67	-0.5302338
87	0x3e9b0f4c	0.30285108
88	0xbef015a7	-0.4689152
89	0xbe2554e6	-0.16145667
90	0xbe740094	-0.23828346
91	0xbea654c1	-0.32486537
92	0x3e652fa6	0.22381458
93	0x3e39276b	0.18081443
94	0x3e809402	0.2511292
95	0xbed5ddd6	-0.4177081
96	0x3dd3ebb6	0.10347693
97	0xbf1d52f0	-0.6145468
98	0x3f0ff30e	0.5623025
99	0x3df293a9	0.1184457
100	0x3ed823d1	0.42214826
101	0xbe903909	-0.28168514
102	0xbecfe112	-0.40601403
103	0x3d39a5c5	0.045324106
104	0x3e914eed	0.28380528
105	0xbb92620b	-0.004467254
106	0x3ca8cb1e	0.020604666
107	0xbefc0c58	-0.49228168
108	0x3e1052fe	0.14094159
109	0xbe5b294f	-0.21402477
110	0xbe6aa7e7	-0.22915612
111	0x3ec328fb	0.38117203
112	0xbe80568c	-0.2506603
113	0xbf14db02	-0.5814668
114	0x3e890da4	0.2676822
115	0x3d9384c6	0.07203059
116	0x3e6e2b4a	0.23258701
117	0xbd368400	-0.04455948
118	0x3d838973	0.06422701
119	0xbf04de34	-0.51901555
120	0xbe0bd32b	-0.13654773
121	0xbe89463f	-0.26811406
122	0xbf0a2d0f	-0.53975004
123	0x3db560f8	0.08856386
124	0x3ea346be	0.3188991
125	0x3ec80210	0.39064074
126	0x3e3b33fe	0.18281552
127	0xbe84bfc6	-0.25927562
128	0x3ea5ed92	0.32407814
129	0xbea02196	-0.31275624
130	0x3f0109b2	0.5040542
131	0x3ebe8f8c	0.37218893
132	0x3ee11559	0.439616
133	0x3d8a5660	0.06754756
134	0x3ec15a74	0.37764323
135	0x3eb2593f	0.34833714
136	0x3e8df4b5	0.2772576
137	0xbf36811a	-0.71290743
138	0xbe060707	-0.13088618
139	0xbe2b5695	-0.16732247
140	0xbecd02cb	-0.40041193
141	0xbe61e423	-0.22059684
142	0xbec1055d	-0.37699404
143	0x3e46f27c	0.19428438
144	0x3eeb3cb9	0.45944765
145	0xbdaa7f00	-0.083250046
146	0xbec1b228	-0.37831235
147	0x3f0f7442	0.5603677
148	0xbe9c175c	-0.30486572
149	0xbda7b2dc	-0.081884116
150	0xbe695c52	-0.22789124
151	0x3db65c18	0.08904284
152	0x3cdf971e	0.027293738
153	0x3d62e1d5	0.05539115
154	0xbdcb96bd	-0.099408604
155	0xbeb901c1	-0.3613415
156	0xbdabb649	-0.083843775
157	0xbe3b7f88	-0.18310368
158	0xbf0a0c61	-0.5392514
159	0xbcf344f7	-0.029695971
160	0x3eefe419	0.46853712
161	0x3e64ccd4	0.2234376
162	0x3ef7fea2	0.48436457
163	0x3e9f3d0e	0.3110127
164	0x3e8f58d4	0.27997458
165	0xbc88ec72	-0.016714308
166	0x3dc05e76	0.09393017
167	0xbf281045	-0.65649825
168	0x3e603a9d	0.21897359
169	0x3e53b0a6	0.20672855
170	0x3ec273f8	0.37979102
171	0xbe98a26d	-0.2981142
172	0xbd8f61e8	-0.07001096
173	0x3e32561c	0.1741566
174	0xbca6f28c	-0.020379327
175	0x3da6fecc	0.081540674
176	0xbd8e68b8	-0.06953567
177	0x3f2503e7	0.6445908
178	0xbe815eb8	-0.25267577
179	0xbeb3dafa	-0.35128003
180	0x3c0cfe99	0.008605623
181	0xbef254c9	-0.4733031
182	0x3e8e5a7d	0.27803412
183	0x3ea33482	0.31875998
184	0x3e9e77d7	0.30950806
185	0xbdb0187c	-0.0859842
186	0x3e8b6d0c	0.27231634
187	0x3ea7acd7	0.32749054
188	0x3e9ee534	0.31034243
189	0xbefbe414	-0.49197447
190	0x3e160271	0.14649369
191	0xbf202fd2	-0.6257297
192	0x3e65460f	0.22390006
193	0x3edbfdc9	0.4296706
194	0xbc2a60a9	-0.010399022
195	0x3eceb5d1	0.4037309
196	0xbeac5858	-0.3366115
197	0x3eec33e2	0.46133333
198	0x3e385b5c	0.18003601
199	0xbda34610	-0.07972348
200	0xbec0bebe	-0.37645525
201	0xbbff7e7e	-0.0077970615
202	0xbca59db2	-0.020216797
203	0x3ba3fc9d	0.005004479
204	0xbeda8933	-0.426828
205	0xbe865b98	-0.26241755
206	0xbf0fb3d3	-0.56133765
207	0x3eb75386	0.3580591
208	0xbda10e36	-0.07864039
209	0x3f009c06	0.5023807
210	0x3e461dfe	0.19347379
211	0xbeeb754c	-0.45987928
212	0xbeccb58f	-0.39982268
213	0xbef65a83	-0.4811593
214	0xbe960c9a	-0.2930649
215	0xbc051da8	-0.008124746
216	0x3ec3c923	0.38239393
217	0x3b5a44c2	0.0033305143
218	0x3efdfb3c	0.4960574
219	0x3ebf36bb	0.37346444
220	0x3ee4df57	0.44701645
221	0x3e8dc6f6	0.27690858
222	0xbe1f233f	-0.15540789
223	0x3ee2a5ec	0.44267213
224	0xbebff923	-0.37494764
225	0x3eadb6a1	0.33928397
226	0x3ee640bf	0.44971272
227	0x3e98f8a9	0.29877213
228	0x3e5bfabd	0.21482368
229	0x3eae3a56	0.34028882
230	0xbda7a9c9	-0.08186681
231	0xbeb46c50	-0.35238886
232	0xbdfd715a	-0.12375136
233	0xbf075b68	-0.5287385
234	0x3d007ac3	0.031367075
235	0x3f0e91a9	0.5569101
236	0xbe2b4f51	-0.16729476
237	0x3eecd2d5	0.46254602
238	0xbe6e3ab6	-0.23264584
239	0xbef54c64	-0.47909844
240	0x3e2d8965	0.16946943
241	0x3ebb54d3	0.36588153
242	0x3e970c52	0.29501587
243	0x3d049f39	0.03237841
244	0x3d9f11ca	0.07767065
245	0xbecc1197	-0.3985717
246	0x3dc4d769	0.09611399
247	0x3e288f32	0.16460875
248	0xbd93e8d1	-0.072221406
249	0x3ec070bb	0.37586007
250	0xbe536909	-0.20645536
251	0x3d290c5d	0.041271556
252	0xbd7b3cee	-0.061337404
253	0x3e8278d3	0.25482807
254	0x3e0ea002	0.13928226
255	0x3e73369e	0.23751304

fc1.bias f4 [256]
0	0x3ef9ad18	0.48764873
1	0x3dcce99c	0.10005495
2	0x3eb68b42	0.3565312
3	0x3ee2b13e	0.4427585
4	0x3ec43030	0.38318014
5	0x3e1c837c	0.15284532
6	0x3ed838c2	0.42230803
7	0x3e9ade6c	0.3024782
8	0x3ec03340	0.375391
9	0x3eba8d09	0.36435726
10	0xbe0ce30a	-0.13758484
11	0x3d36191f	0.04445755
12	0xbdea29eb	-0.114337765
13	0x3e40afb6	0.18817028
14	0x3f016fb2	0.5056106
15	0x3f115e64	0.56784654
16	0x3ea37f10	0.31932878
17	0xbe315bcf	-0.17320178
18	0x3e464ab1	0.1936443
19	0x3e9d9676	0.30778855
20	0x3dd59658	0.104290664
21	0x3e2b7fbf	0.1674795
22	0x3e44b59f	0.19209908
23	0x3f22d265	0.63602287
24	0xbe0a0356	-0.13477835
25	0xbd47f378	-0.048816174
26	0xbcaff0be	-0.0214771
27	0x3edea758	0.43487048
28	0x389a6415	7.361934e-05
29	0x3e43eedb	0.19134085
30	0x3e81584a	0.25262672
31	0x3e95abf1	0.29232743
32	0x3d241929	0.040063057
33	0x3d1ed909	0.0387812
34	0x3e965fb1	0.29369882
35	0x3dfeff2c	0.12451014
36	0x3d7d3fe6	0.061828516
37	0x3ee21ca4	0.44162476
38	0xbddb0151	-0.106936105
39	0x3e8ad620	0.2711649
40	0x3ed2c117	0.4116294
41	0x3f3b9b15	0.7328351
42	0x3e278c62	0.16362146
43	0x3d85e446	0.0653768
44	0x3ec3c469	0.38235787
45	0x3ef0c541	0.47025493
46	0x3ea66df4	0.32505763
47	0x3eae2f3b	0.3402041
48	0x3e7ac530	0.24489284
49	0x3e84803d	0.25879088
50	0x3e1b290e	0.1515238
51	0x3f1afad6	0.60538995
52	0x3c207364	0.009793136
53	0x3eb343f2	0.35012776
54	0xbe1f316c	-0.15546197
55	0x3dd2fb2b	0.10301813
56	0x3de4c528	0.11170417
57	0x3e5df8e8	0.21676981
58	0x3f151efa	0.5825039
59	0x3ce5ff75	0.028075913
60	0x3eaa3f00	0.3325119
61	0x3ee151dd	0.4400777
62	0x3ebfeca1	0.3748522
63	0xbe502adb	-0.20328848
64	0x3e6019e0	0.2188487
65	0x3d4e3795	0.050345976
66	0x3e2d4a79	0.1692294
67	0x3eec449d	0.46146098
68	0x3eb2b227	0.34901544
69	0x3ee90c77	0.45517322
70	0x3e06ed77	0.13176523
71	0x3de24364	0.1104801
72	0x3edea78c	0.43487203
73	0x3df3c113	0.1190206
74	0xbdef8c5d	-0.11696694
75	0xbe6223a4	-0.22083908
76	0x3f295b98	0.66155386
77	0xbde1d9b6	-0.11027853
78	0x3c0406c9	0.008058258
79	0xbd5d6dd7	-0.05405983
80	0xbe362aea	-0.17789808
81	0x3edebde8	0.43504262
82	0xbe24aad6	-0.16080794
83	0x3e9cb3c4	0.306059
84	0x3dd74175	0.10510532
85	0x3f1be04f	0.6088914
86	0x3d388d89	0.045056853
87	0x3e268a7e	0.16263768
88	0x3e4b22ef	0.19837545
89	0x3f123f8e	0.57128227
90	0xbe36ed54	-0.17863971
91	0x3dfed04a	0.12442072
92	0xbe2e528a	-0.17023674
93	0x3eb55ab2	0.35420758
94	0x3e9ae506	0.30252856
95	0xbdbe66fc	-0.092969865
96	0xbd82cadd	-0.06386349
97	0x3f185d24	0.5951712
98	0x3ec11693	0.37712535
99	0x3e2d3fe4	0.16918904
100	0xbcb6e03c	-0.02232372
101	0x3f2ede1c	0.6830766
102	0x3eff0b37	0.49813244
103	0x3eb2d3c8	0.349272
104	0xbdd87fa8	-0.105712235
105	0x3e185944	0.14877802
106	0x3d0641a3	0.03277744
107	0xbe3c5469	-0.18391575
108	0x3e9836f1	0.29729417
109	0xbdd5cd8c	-0.104395956
110	0x3eaffeaf	0.34373996
111	0x3e05fb4b	0.13084142
112	0x3d5e70a7	0.054306652
113	0x3ee71498	0.451329
114	0x3e896aa3	0.2683917
115	0x3efbde46	0.4919302
116	0x3e0357ee	0.12826511
117	0xbeb23f98	-0.34814143
118	0x3e10b37d	0.1413097
119	0xbcb63ccb	-0.022245785
120	0x3ea15017	0.31506416
121	0x3df81d31	0.12114943
122	0x3e741581	0.23836328
123	0x3e9de11c	0.30835807
124	0x3eaca563	0.3371993
125	0x3dfcb5f8	0.12339395
126	0x3e6a4e73	0.22881489
127	0x3e04ab20	0.12955904
128	0xbe3a59fb	-0.18198387
129	0xbdbdc70c	-0.09266481
130	0x3d5c35e3	0.053762328
131	0x3d19e5ab	0.037572544
132	0x3f0b8968	0.5450654
133	0x3e5aac19	0.21354713
134	0x3f19c6d4	0.6006901
135	0x3ef79931	0.48359063
136	0x3e6ac101	0.22925188
137	0x3ed38f60	0.41320324
138	0x3e9a26c2	0.30107695
139	0x3d78010f	0.060547885
140	0x3f0e9a74	0.55704427
141	0x3c69bb94	0.0142659135
142	0x3e637908	0.22214139
143	0x3e0c1a2e	0.13681862
144	0x3dd14244	0.10217717
145	0xbdc34601	-0.095348366
146	0xbd8ba5a8	-0.06818706
147	0xbea05d0e	-0.31320995
148	0xbe35533c	-0.17707533
149	0xbde63f47	-0.11242538
150	0x3ef119f7	0.47090122
151	0x3edb6b17	0.4285514
152	0x3e8159b3	0.25263748
153	0xbd13a1b8	-0.0360429
154	0x3f15bf20	0.5849476
155	0x3def5eda	0.116880134
156	0xbe2483ac	-0.16065854
157	0x3e37802a	0.17919984
158	0xbe1ba879	-0.15200986
159	0x3f0acebd	0.5422171
160	0xbd582e7c	-0.052778706
161	0x3efe8068	0.4970734
162	0x3ee74ab0	0.4517417
163	0x3ed43dc4	0.41453373
164	0x3ed86aec	0.42269075
165	0x3e8637f3	0.2621456
166	0x3dccd93b	0.10002371
167	0x3e917f41	0.284174
168	0x3ef1363d	0.47111693
169	0x3daa7d4c	0.0832468
170	0x3ec9e6cd	0.394339
171	0xbdaeb6f7	-0.085309915
172	0xbdc84194	-0.09778133
173	0xbe11d5e6	-0.14241752
174	0x3f314a0e	0.69253623
175	0xbbc81424	-0.0061059166
176	0x3e6dedc6	0.23235235
177	0x3e2719de	0.16318461
178	0x3dac016a	0.08398707
179	0xbda7804e	-0.08178769
180	0x3e707353	0.23481493
181	0x3e62ddf2	0.22154978
182	0x3e27ac1c	0.16374248
183	0xbe2d9f65	-0.16955335
184	0xbe070161	-0.1318412
185	0xbd9dfe5e	-0.07714532
186	0x3ec1873b	0.37798485
187	0x3f06d08a	0.52661955
188	0xbe40de08	-0.18834698
189	0x3db6071f	0.08888077
190	0x3d966fdd	0.07345555
191	0x3eec4402	0.46145636
192	0x3e6afbab	0.22947566
193	0x3f0525c2	0.5201074
194	0x3f26dfcc	0.65185237
195	0xbdb14efe	-0.08657645
196	0x3c633a47	0.013868875
197	0x3e2c433d	0.16822524
198	0xbe04cb04	-0.1296807
199	0x3eeb86d6	0.4600131
200	0x3eab782a	0.33490115
201	0x3ec34cfd	0.38144675
202	0x3eb76c40	0.35824776
203	0xbe37c8dc	-0.17947716
204	0x3f03759b	0.51351327
205	0x3edac684	0.4272958
206	0x3e0c7206	0.13715371
207	0x3f2e74b5	0.6814683
208	0x3e81db1a	0.25362474
209	0x3d9f604a	0.077820376
210	0x3e719727	0.23592816
211	0x3e856e77	0.2606084
212	0x3d8ffc70	0.070305705
213	0x3eba4d3a	0.36387044
214	0x3e85d1dd	0.26136675
215	0x3e8be7aa	0.27325183
216	0x3ea60314	0.32424223
217	0x3ea65414	0.32486022
218	0x3dae5585	0.08512405
219	0x3ebd9c9e	0.37033552
220	0x3efd68f8	0.49494147
221	0x3f03963e	0.51401126
222	0x3d96afb4	0.073577315
223	0x3e93b318	0.28847575
224	0xbd68b5da	-0.056814052
225	0xbe1b61a6	-0.15173969
226	0xbdcec240	-0.10095644
227	0x3ec2a670	0.38017607
228	0xbd4777e2	-0.048698314
229	0xbdc8b6cd	-0.098004915
230	0xbc983f8a	-0.018584985
231	0x3eeece46	0.4664175
232	0x3da12a81	0.07869435
233	0xbeb73616	-0.35783452
234	0x3f14d731	0.58140856
235	0x3ea6c626	0.3257305
236	0x3c8720cc	0.016495131
237	0xbe545834	-0.20736772
238	0x3ecce771	0.40020326
239	0x3edfff75	0.43749586
240	0xbc4a25b4	-0.012338091
241	0x3e4bc260	0.19898367
242	0x3f15d26c	0.58524203
243	0x3e8ea8d6	0.27863187
244	0x3da990b6	0.082795545
245	0x3e2ad79b	0.1668381
246	0x3e9c8c23	0.30575666
247	0x3e82f08a	0.25574142
248	0x3f03f466	0.515448
249	0x3d5f25ab	0.054479282
250	0x3efb81f4	0.49122584
251	0x3ecfefdb	0.40612683
252	0xbd790ec2	-0.06080509
253	0x3dd18bb4	0.102317244
254	0x3e5c493a	0.21512309
255	0x3e6dcace	0.23221895

fc2.weight f4 [22, 256]
0	0x3e2196a6	0.15780124
1	0xbe8489d1	-0.25886396
2	0x3de690b8	0.11258072
3	0xbe511b01	-0.20420457
4	0x3dbeff28	0.09326011
5	0xbd3650e5	-0.04451074
6	0xbe2b9605	-0.16756447
7	0x3e4a7d3d	0.19774337
8	0xbe0d91b7	-0.13825117
9	0xbe8284cc	-0.2549194
10	0xbe821c88	-0.25412393
11	0x3e1c90d6	0.15289626
12	0xbe595a83	-0.21225934
13	0xbe357bad	-0.1772296
14	0xbd1a9e1e	-0.03774845
15	0xbdb067ce	-0.08613549
16	0xbcdc4a0d	-0.026890779
17	0x3e5af42c	0.21382207
18	0x3e836103	0.25659952
19	0x3dab4bca	0.08364065
20	0xbe85fff9	-0.26171854
21	0xbe38e2b2	-0.18055227
22	0xbda30cfc	-0.07961461
23	0x3d5f9083	0.054581176
24	0x3dcad7e3	0.099044584
25	0xbe3e681e	-0.18594405
26	0x3e2d1add	0.16904779
27	0x3e94a68e	0.2903332
28	0x3e2375aa	0.15962854
29	0x3d23b510	0.039967597
30	0xbdac4641	-0.08411837
31	0x3e335ad7	0.17515121
32	0x3e45419c	0.19263309
33	0x3e5ea034	0.217408
34	0xbdc3e7f8	-0.09565729
35	0x3e50757d	0.20357318
36	0xbe0444b8	-0.12916839
37	0xbe1f80d0	-0.15576482
38	0x3e96f736	0.29485482
39	0xbde1be89	-0.1102267
40	0xbd8cff77	-0.068846636
41	0x3e3207df	0.17385815
42	0x3e12a4b9	0.14320649
43	0xbe087a1c	-0.13327831
44	0x3cb77112	0.022392783
45	0xbe59ffb3	-0.21288948
46	0x3dcc34d1	0.099710114
47	0x3e481de5	0.19542654
48	0x3d7ee057	0.062225666
49	0x3e7aa9f6	0.24478897
50	0xbdfeb601	-0.12437058
51	0xbe831c93	-0.25607738
52	0x3df29b28	0.11846
53	0xbd9faf62	-0.077971235
54	0x3e5a1d2f	0.21300195
55	0xbe99e357	-0.3005626
56	0x3db00b38	0.0859589
57	0xbe2ca63b	-0.16860287
58	0xbe345fb1	-0.17614628
59	0x3c815824	0.015789099
60	0xbdfb8d20	-0.12282777
61	0xbe7e4e5e	-0.24834582
62	0x3e03e033	0.12878494
63	0x3e21f8e6	0.15817603
64	0x3e484b9d	0.19560094
65	0xbd29cc89	-0.041454826
66	0x3e8297da	0.2550648
67	0xbe32e578	-0.17470348
68	0x3dd68c42	0.10475971
69	0x3e20e48b	0.15712182
70	0x3df0ecc4	0.117639095
71	0xbe4d19e0	-0.20029402
72	0xbe6abf64	-0.22924572
73	0x3e3840bd	0.17993446
74	0xbe09c076	-0.13452324
75	0xbd6dc8cf	-0.058052834
76	0xbe73fff4	-0.23828107
77	0xbe549527	-0.20760022
78	0xbe28bca7	-0.16478215
79	0xbda78a8d	-0.08180723
80	0x3e3a3a76	0.18186364
81	0x3c4b898b	0.0124229295
82	0x3e9b30bf	0.30310628
83	0xbe424c6d	-0.18974467
84	0x3e259ec5	0.16173847
85	0x3df489f3	0.11940374
86	0xbe26d7c8	-0.16293252
87	0xbd3069c7	-0.043069627
88	0x3e402121	0.18762638
89	0xbe4ac85a	-0.1980299
90	0xbdd12574	-0.10212222
91	0xbe16b66c	-0.14718026
92	0xbe5124d1	-0.204242
93	0xbdcd4df5	-0.10024635
94	0xbe41df90	-0.18932939
95	0xbe0a3d85	-0.1350003
96	0xbe4884ec	-0.19581956
97	0xbe1382f0	-0.14405417
98	0xbe2e39b8	-0.17014205
99	0xbe055471	-0.13020493
100	0xbe4f8fc9	-0.20269693
101	0x3e51fb6f	0.2050607
102	0xbe43ddd4	-0.1912759
103	0x3d9132fb	0.07089802
104	0xbe143851	-0.14474608
105	0x3e84c309	0.2593005
106	0x3e766310	0.24061227
107	0xbe435fc1	-0.19079496
108	0x3d3e237e	0.046420567
109	0x3e451456	0.19246039
110	0xbe624f63	-0.22100596
111	0xbe09bc83	-0.13450818
112	0xbe66d175	-0.22540839
113	0x3d50a3d9	0.050937507
114	0x3d34f1f5	0.04417606
115	0xbe5ca2d0	-0.21546483
116	0x3e44713b	0.19183819
117	0x3df9db9f	0.122000925
118	0x3e4c6140	0.19958973
119	0x3e648f9f	0.22320412
120	0x3d2c4d21	0.042065743
121	0x3e1c19ee	0.15244266
122	0xbe842cfa	-0.25815564
123	0xbe72a10a	-0.23694244
124	0x3e6d3890	0.23166108
125	0xbe763cec	-0.24046677
126	0xbe1ad8f6	-0.15121827
127	0x3e6a338c	0.22871226
128	0x3e121aae	0.1426799
129	0xbd84edd2	-0.06490673
130	0xbd69d1d6	-0.05708488
131	0xbdbf1c55	-0.09331576
132	0x3e8f6649	0.28007725
133	0x3e6680b6	0.22510037
134	0xbe282357	-0.16419731
135	0x3e10d9b1	0.14145543
136	0x3e2e0a88	0.16996205
137	0x3e513c36	0.20433125
138	0x3dfcef5a	0.1235034
139	0xbde3694f	-0.111040704
140	0xbdd57155	-0.10422007
141	0xbe13abff	-0.1442108
142	0x3e2ade10	0.16686273
143	0x3de15fd6	0.110046074
144	0x3e621885	0.22079666
145	0xbe935498	-0.28775477
146	0x3d0683aa	0.03284041
147	0xbdd843af	-0.105597846
148	0x3dfa9c77	0.122368746
149	0x3d8bd636	0.06827967
150	0xbe18623e	-0.14881226
151	0xbe844887	-0.25836584
152	0xbd5c03ec	-0.053714678
153	0x3e456735	0.19277652
154	0xbdd61f68	-0.10455209
155	0x3e3933ad	0.18086119
156	0x3e81a40c	0.2532047
157	0x3e5c889a	0.21536484
158	0x3e04b9ca	0.12961498
159	0xbe163334	-0.1466797
160	0xbe2e278d	-0.17007275
161	0xbe2a0375	-0.16602881
162	0xbe73ce73	-0.23809223
163	0xbe2646a8	-0.1623789
164	0xbe76bf5a	-0.24096432
165	0xbe69db6e	-0.22837612
166	0x3dc6214b	0.09674319
167	0xbe63f005	-0.22259529
168	0xbe57c8a2	-0.21072629
169	0x3bb8220e	0.005619294
170	0xbe13a407	-0.1441804
171	0xbdae86e1	-0.0852182
172	0x3e3de7ba	0.18545428
173	0xbdc71e7e	-0.09722613
174	0x3e136217	0.14392887
175	0x3ded98a7	0.11601382
176	0xbe41b062	-0.18914941
177	0x3e4f21a9	0.20227684
178	0xbde893d3	-0.1135632
179	0x3e53de47	0.20690261
180	0xbe4f3b9a	-0.2023758
181	0x3d0a7cc6	0.0338104
182	0xbd0e9c8c	-0.034817263
183	0x3e5b1288	0.21393788
184	0x3dd5a8d1	0.1043259
185	0xbe87e351	-0.26540616
186	0xbd91f7be	-0.07127331
187	0x3e290452	0.16505554
188	0x3e048e8e	0.12945005
189	0xbe6e5616	-0.23275027
190	0x3dfc1f39	0.12310643
191	0xbe83b93a	-0.25727254
192	0xbe8cc6ec	-0.27495515
193	0x3e9c1fa5	0.30492893
194	0xbe4a938f	-0.19782852
195	0xbe14d205	-0.14533241
196	0x3dc3cd95	0.09560696
197	0x3d412e11	0.047163073
198	0x3dba35b3	0.090922736
199	0xbe59cab9	-0.21268739
200	0xbe1967da	-0.14981022
201	0xbe380bd6	-0.17973265
202	0x3d06f0e3	0.03294457
203	0xbe49c6b0	-0.197047
204	0xbd816b01	-0.063192375
205	0x3e71fdf1	0.23632027
206	0x3e30ef69	0.17278828
207	0x3e35a9b6	0.17740521
208	0x3e72476e	0.23660061
209	0x3e3129db	0.17301123
210	0xbe046550	-0.12929273
211	0x3e414394	0.18873435
212	0x3e453180	0.19257164
213	0x3e2f4e81	0.1711979
214	0xbdca8fef	-0.098907344
215	0x3e80f17f	0.25184247
216	0xbe7fbf51	-0.24975325
217	0xbe1c8004	-0.15283209
218	0x3e875ae3	0.2643653
219	0xbe4fa0b1	-0.20276143
220	0xbe432a3f	-0.19059084
221	0xbe756789	-0.23965277
222	0x3e0f28e7	0.13980447
223	0x3e4ad462	0.1980758
224	0xbe132611	-0.1436999
225	0xbe26b3e5	-0.16279562
226	0x3e2eb67c	0.170618
227	0x3e7cdfd9	0.24694766
228	0xbe1c8ed2	-0.15288857
229	0xbe0b1ebf	-0.13585947
230	0x3dd910c9	0.10598905
231	0xbe1d7771	-0.15377595
232	0x3e61e589	0.22060217
233	0xbe494668	-0.19655764
234	0x3e1847d1	0.14871146
235	0x3e36f520	0.17866945
236	0x3e6c2199	0.23059691
237	0x3e4e5b3c	0.2015199
238	0x3e4883a7	0.19581471
239	0x3be0e7c3	0.0068635656
240	0xbe61db17	-0.22056232
241	0x3dcb5cb6	0.099297926
242	0x3e901528	0.2814114
243	0x3e549e03	0.20763402
244	0x3e8cb626	0.27482718
245	0x3e4ad909	0.19809355
246	0xbdbe580b	-0.092941366
247	0x3e447518	0.19185293
248	0xbdb688fc	-0.089128464
249	0xbe6a0b6d	-0.22855921
250	0xbdfe5587	-0.12418657
251	0x3e25aa28	0.1617819
252	0x3de676dd	0.1125314
253	0xbe1c5731	-0.15267636
254	0xbdf8fb0a	-0.12157257
255	0xbe38ddfc	-0.1805343

fc2.bias f4 [22]
0	0xbe33b8a0	-0.17550898
1	0xbe271b2c	-0.16318959
2	0x3e69cb33	0.2283142
3	0xbcccf244	-0.025017865
4	0xbce6b871	-0.02816412
5	0x3e2f736c	0.17133874
6	0x3e266b3c	0.16251844
7	0x3d2f67ac	0.04282348
8	0x3e46c360	0.19410467
9	0xbd094eb3	-0.03352232
10	0xbdc02895	-0.093827404
11	0x3e5528de	0.20816371
12	0x3d5281f6	0.05139347
13	0x3d9afb7d	0.07567499
14	0xbdeb0542	-0.11475612
15	0xbe0ea842	-0.13931373
16	0x3e9d8f4f	0.30773398
17	0x3daf25ee	0.085521564
18	0x3d939dbb	0.07207819
19	0xbdc300a7	-0.09521609
20	0x3dda188d	0.10649214
21	0xbd6c1349	-0.05763558
