backend/models/gcn_run2.pth (torch, 265612 bytes, 8 tensors)

conv1.att_src f4 [1, 8, 256]
00000000: 2a15 0abc bf50 0ebb 0001 33b6 3200 103c
00000010: 1082 cebb 5ca3 4f3a 6b71 81bb a59d 253b
00000020: f163 7a3c e36e 433c 6e56 16bc a4a1 a73b
00000030: 1547 20bc 4eb1 853a 1251 39bc e478 bdbb
00000040: 0728 893b baef 933a fcb0 7eb9 ee05 6ebb
00000050: 6afc 26ba 3a4f cabb 6d2e 61bb ee98 08bc
00000060: d609 57bb ec1d 0cbb fae6 edbb e3e3 31bc
00000070: b104 51bc ae44 94ba 69fd ecba 6492 f13b
00000080: f1c9 f73b 654a 29bb 6efb 13ba f773 f8ba
00000090: a1e4 ccbb 003f 383c 751f 8cba c3ab ea3b
000000a0: e4e9 3b3c f3c1 adba b469 b93b 7a91 35bb
000000b0: 6886 593a 5977 8f3a 145e fcb9 b985 c3ba
000000c0: 9ebe 2a3c 2f39 e3bb b9d0 f33b 50fc 2e3c
000000d0: 1ad5 cfbb f698 983b dda5 a1bb 2db0 093c
000000e0: a6a9 373b 8aec 6b3a 9c9a c0bb 87fe 3cbb
000000f0: ced4 183b eaa8 3c3a 76a3 353b f834 1aba
00000100: 27e5 0b3c 4904 4b3b a2f5 0b3c a414 85ba
00000110: d6b5 d5ba 7437 a23b 9338 9d3b 2ec5 183b
00000120: 686e 00b9 cc9f 833b 92cb 13bc e8ce 99bb
00000130: 1c48 7d3b 63b2 d9ba 1634 12bc 01f8 48bc
00000140: 71ac e43b cd76 3e3b 9cb8 12ba 6eae d83a
00000150: 8576 303b 10e4 103b e59f b3bb e776 0d3a
00000160: 08c0 1bbb 749d bcbb 2ce1 5db9 531d 2cba
00000170: 30d8 a63a c3b8 2dbc f460 1f3c 5c86 8539
00000180: d021 0dbb d53d 5d3c bb02 8b3c afae a0bb
00000190: 717e d6b9 7fb5 de3b a226 e13a 0035 bbb5
000001a0: c800 bd3a 7054 fbba ee62 75bc 3cdc 733a
000001b0: e403 553b fd49 403c 4d97 84bb d073 93bb
000001c0: c987 cfbb 2c98 2fb8 5047 1f3c 3c04 0b3b
000001d0: 22fa 03ba 0fc0 36bc 2407 9cbb a155 77bb
000001e0: 89f5 923b 084b ca3a c6df af3b 8273 ac3a
000001f0: 9398 82ba 49b1 b9bb f088 eaba 62e7 56bb
00000200: 8a3b d13a eaa1 6bbb 1544 f1ba 637e 9e3b
00000210: 93fc b6bb 7a3a 82bb 0b39 2c3c 052c e4bb
00000220: b789 fe3b 26c9 45bb a26d 693b 742a 9a3a
00000230: 1dc7 b1bb 8a12 19ba 89fb bd3b 3aa0 46bb
00000240: ef35 b9ba fe81 cfba bc2c 0839 26bc 84bb
00000250: d72b 9ebb 68ea ce3a 5790 473b 08fa a138
00000260: 95d9 243c 281b b3ba 1bd9 f9bb ac49 19bc
00000270: dbe0 5c3c 60e6 acba a0a5 58b8 3a95 f43a
00000280: 0097 ae3a 179e 21bc 3a93 99bb 819f 643c
00000290: 6632 4e3c 7740 903a dd45 473c 3577 88bb
000002a0: 9c48 063a 255b 5ebb e393 413b 5669 803a
000002b0: 437d 2cbc 966a 523b 5ea3 1fbc 08f6 b0ba
000002c0: 6858 a7bb b2b3 bfba 6401 a1bb ea03 5fbc
000002d0: 22a8 61b9 aa38 5b3a 52d9 a3ba c7c0 95bb
000002e0: 7c9c 043b bb0d 8abb c050 1abb b875 0ebb
000002f0: 10d3 4abc 5005 40b8 f686 903a 8201 ab39
00000300: 9887 443b 38ea a5bb e46b 93bb 396b e6bb
00000310: 3ce6 0b3b bdc6 92bb de0b 64ba 4017 663a
00000320: 0004 1336 c847 e639 b8aa 48bb 3f32 35bb
00000330: 34cb 04bb 213f c43b e81a daba c5aa f8bb
00000340: b49c 8c3b 4161 da3b 508c 113b 9efb 283c
00000350: 5691 b039 470a 17bc b838 36bb 0c68 963a
00000360: 6e52 043c f9de d43a 7ce6 203a a350 0abb
00000370: 2e59 0d3b 91f5 bb3a caea 3b3b 4908 edbb
00000380: 308f d1b8 dc03 e93a b822 a43a 0827 87ba
00000390: 8f7f d539 f385 9dbb dce6 5fbb 18a4 163c
000003a0: e215 cfbb 789a aa3b 94b3 06bb 6ff7 2c3c
000003b0: 2257 d03a 0a00 d1ba fb06 53ba a039 4d39
000003c0: bf52 b9bb 79eb 283b 2723 843b f446 283c
000003d0: 1099 abb8 4df7 1ebc 5915 97bb 6778 88bb
000003e0: 7310 dd38 801d 37bb 195d bd3b e03e 1cbb
000003f0: 47d5 19bc 8f19 81bb af58 5abb 81ad 6b3b
-0.0084278975 -0.002171561 -2.667366e-06 0.008789109 -0.0063021258 0.0007920766 -0.003950288 0.0025270965
0.015282617 0.011928293 -0.00917588 0.0051157046 -0.009782572 0.0010199936 -0.011310833 -0.0057822336
0.00418568 0.0011286654 -0.0002428926 -0.0036319452 -0.000637001 -0.0061739953 -0.0034359947 -0.0083372425
-0.003281226 -0.002138014 -0.0072602006 -0.010857555 -0.012757466 -0.0011311972 -0.0018080893 0.0073721875
0.007561915 -0.0025831696 -0.0005645071 -0.0018955459 -0.0062528406 0.011245489 -0.0010690527 0.007161589
0.011469338 -0.0013256654 0.0056583527 -0.002770512 0.0008297921 0.0010945603 -0.0004813528 -0.0014917172
0.010421423 -0.006934307 0.007440653 0.010680273 -0.0063425424 0.0046569062 -0.0049331025 0.00840382
0.0028024702 0.00089997856 -0.005877806 -0.0028838234 0.00233202 0.0007196801 0.0027715839 -0.0005882527
0.008538521 0.0030977896 0.00854245 -0.0010153246 -0.0016304802 0.004950458 0.004798004 0.0023310888
-0.00012248161 0.004016852 -0.009020703 -0.0046938546 0.0038647717 -0.001660895 -0.008923551 -0.01226616
0.0069785644 0.002906251 -0.0005596967 0.0016531476 0.0026926112 0.0022108592 -0.0054817074 0.0005396441
-0.0023765583 -0.0057560746 -0.00021160085 -0.0006565649 0.0012729224 -0.010603133 0.009727705 0.00025467842
-0.0021535046 0.013503511 0.016969075 -0.0049036364 -0.00040911467 0.0067965384 0.0017177651 -1.3948011e-06
0.0014419788 -0.0019174945 -0.0149772 0.0009302532 0.003250354 0.01173639 -0.004046357 -0.00449989
-0.0063333255 -4.1864972e-05 0.009721592 0.002121224 -0.0005034526 -0.011154189 -0.0047615934 -0.0037740248
0.0044848365 0.0015433738 0.005367252 0.0013156983 -0.0009963684 -0.005666886 -0.0017893594 -0.0032791723
0.0015963179 -0.0035954663 -0.0018407131 0.004836844 -0.0055843084 -0.003974256 0.010511647 -0.0069632553
0.0077678817 -0.0030179708 0.0035618325 0.001176192 -0.0054253475 -0.00058392494 0.0057978076 -0.0030307905
-0.0014130453 -0.0015831587 0.00012986636 -0.0040507494 -0.0048270035 0.0015786411 0.0030451023 7.72365e-05
0.010061641 -0.0013664709 -0.007624758 -0.009355944 0.013481344 -0.0013191216 -5.1652663e-05 0.0018660196
0.0013320148 -0.009864352 -0.00468674 0.013954044 0.012585258 0.001100554 0.012162653 -0.004164601
0.0005122514 -0.0033928838 0.002953761 0.0009797018 -0.010527912 0.0032106987 -0.00974354 -0.0013501057
-0.0051069744 -0.0014625697 -0.004913496 -0.013611773 -0.00021520306 0.00083626306 -0.001250068 -0.0045701
0.0020234874 -0.0042130626 -0.0023546666 -0.0021737646 -0.012379423 -4.5781315e-05 0.001102655 0.00032616785
0.0029988047 -0.0050633214 -0.0044989455 -0.007031825 0.0021346947 -0.004479258 -0.0008699278 0.0008777268
2.1907035e-06 0.000439225 -0.0030619334 -0.0027648357 -0.002026272 0.005988971 -0.0016640099 -0.0075887167
0.0042911414 0.0066644256 0.0022208877 0.010313896 0.0003367762 -0.009218759 -0.0027804803 0.00114751
0.008076293 0.0016240767 0.00061378605 -0.0021105192 0.0021568048 0.0014340152 0.002867388 -0.0072336537
-9.992567e-05 0.001777764 0.0012522554 -0.0010311315 0.00040721564 -0.0048072278 -0.0034164703 0.009194396
-0.0063197473 0.0052064024 -0.0020553814 0.01055704 0.0015895108 -0.0015945446 -0.00080500514 0.0001957179
-0.005655616 0.0025775118 0.004032511 0.010270823 -8.1824255e-05 -0.009702516 -0.004610699 -0.0041647437
0.00010541165 -0.0027941167 0.0057789204 -0.0023841187 -0.009389228 -0.0039398144 -0.003331702 0.003596157

conv1.att_dst f4 [1, 8, 256]
00000000: 22b2 b83a 5be4 adbb e575 453a ac55 3c3a
00000010: 3eb7 ccba ba54 5bb8 7b9f e2bb c19f bfba
00000020: d5cd e43b b237 0f3c d9cf 5fba 61f6 a53b
00000030: 0720 00bb 7e49 833a 7213 9039 2911 e0ba
00000040: 6c57 25bb b605 3cbb 6cb7 8a3a 803c 813a
00000050: 8e9b 14b9 ef1d 90bb 5e6b 3eba 88b8 02bc
00000060: 80ab f6bb a469 90ba 115a d6ba 08c0 88bb
00000070: eaac 33bb f409 d9b9 3c4b 64bb 7ec0 9eb9
00000080: 7532 d63b 5e12 d8bb 5c19 603b ebac 9b3b
00000090: 9e30 66bb d24f 22bb aede 2eba 2d1f eb3b
000000a0: 6a59 a83b 0c86 81bb 9225 07bb 1e9c 513a
000000b0: 006a 0b3b 78d3 99bb 70cd 51bb 67b1 0cbc
000000c0: 5fd6 e93a f8c6 3439 89a2 283b be4b fb3a
000000d0: 6d38 a7bb 7985 843b 56ed be3a 0ca1 113b
000000e0: 15a0 2d3b c27e 163a e96a 19bc bf84 563b
000000f0: b2a1 a83b 68af 72b8 ba15 f2bb 6c17 f339
00000100: 606b 1dbb 13a5 b1bb 7c65 97ba 3462 9439
00000110: a789 9f3a df2d 233b 8e06 f0ba 8e19 3fba
00000120: c863 fd3a fb0a 15bb 8926 843a 8cb5 77ba
00000130: 014e 27bb fc79 e4b9 8706 90bb c662 23bc
00000140: a431 843b c28b af3a 8e34 8e3b eea2 a53b
00000150: 0a42 57bb 42c4 78bb a23a a739 2b59 2e3b
00000160: 20a3 0cb8 5557 0b3b b25e b13a 1e81 55bb
00000170: e10f b23b af26 81bb 325b b23a 8f29 8d3b
00000180: 14d6 f8bb e249 eb3b 5673 9dbc 6437 c4ba
00000190: c283 ad3b 3dae ab3b 4ba2 9f3a 74d4 71ba
000001a0: 93d1 3ebb 7950 f33a 47d6 cdbb 248a 9ab9
000001b0: 2e27 41bb 5df4 b43b 6e02 023b d86c f338
000001c0: 8a6c 2cbb c918 993b ea8f a63b 382d 963b
000001d0: 323f f63b 3577 9fb9 a37c fc39 6fcf 5c3a
000001e0: 556f e6ba 4e89 b4bb 5da0 8d3b c421 2cb9
000001f0: ff4a 5c3b b272 d8b9 e05f 3c38 e494 d73b
00000200: a9d0 573b de27 64ba a89d 6fba b3ae 863b
00000210: dc73 ca38 1893 53ba 330d a33b f985 0b3a
00000220: 8969 a23b 359e a0bb 6f7a caba 20ab 543a
00000230: d758 05bc 2deb 7cba 6e8d 2c3a 0040 53b9
00000240: 8891 0abb 800e bc3b 8c64 7bba 2297 573b
00000250: 0c8b bc3b bdb0 90bb e1ce 093b 16e2 fc3a
00000260: f2d9 15ba 259c 5e3a a86e 6fba 6185 4bbb
00000270: 8e57 e93b c321 2f3b fb28 94ba 3c83 3c3b
00000280: ab31 b23a 9f6a bbbb 2a1d 4a3a a63d 373b
00000290: 721f e03b 60f8 593b 1619 d93b 3426 3e3b
000002a0: 5cfb 7d38 6e42 1bbb 5c2f 2cba 5cf1 0039
000002b0: 69a6 68bb ff2e f8ba 0c99 afba ce55 97bb
000002c0: 11da 653a 3566 44b9 b31f 5a3b 1d1e 21bb
000002d0: b8ab 42ba 32c4 493b 9ea4 9d3b 6078 663a
000002e0: 3d26 6fba 62d2 59bb 0f43 1fba 5b5c c2bb
000002f0: 6f43 9bbb 3615 f63a 9c49 81bb daf3 3d3b
00000300: 96bb 663a 8098 c6b6 b76f af3a 9845 00bc
00000310: a7bb acbb 569d 46bb d272 f33a 9422 4b3b
00000320: cf80 d8ba 0488 d13b 3237 7cbb 30a9 17bc
00000330: 56b2 253b 7aae c1ba 38e1 d73b 6d73 21bc
00000340: c83c ccba 1808 99ba 13e2 043a 363c 79ba
00000350: edf6 173a cfe4 b53a d6ee 3dbb c965 a53b
00000360: adb4 ef3a 8fd2 caba 8077 89bb d2e4 44bb
00000370: e700 293b e924 313b c850 55bb 42b3 833a
00000380: 7e53 283b 2386 903b 5529 6b3b bde6 72ba
00000390: 5e0c e239 22b7 92bb aeb0 60bb 5ae6 8a3b
000003a0: 3c52 fc39 5e5b 75ba 842c 04ba eb11 a93b
000003b0: 9f9c 863a f013 34bb 5c84 59bb 81dc d13a
000003c0: 9c73 2e39 b54e 27bb 9164 85bb 9e9b a0ba
000003d0: 3d71 bd3a 70a6 03bc 5913 03bc 0e19 c53b
000003e0: f2f8 8138 28d2 393a 4f39 3f3b 047c 3f3b
000003f0: 20ce 0138 7bf3 e93b 3793 253b 69f5 d2ba
0.0014091174 -0.005306763 0.0007532521 0.0007184397 -0.0015618575 -5.2292577e-05 -0.006915984 -0.0014619754
0.006982545 0.008741306 -0.00085377466 0.005064771 -0.001955034 0.0010016409 0.00027480308 -0.0017094958
-0.002522911 -0.0028689927 0.0010583228 0.0009859949 -0.00014172329 -0.0043980996 -0.0007263924 -0.007978566
-0.0075277686 -0.0011017811 -0.0016353746 -0.0041732825 -0.0027416297 -0.0004139688 -0.0034834882 -0.00030279526
0.0065367767 -0.0065939864 0.0034194803 0.004750838 -0.0035124193 -0.0024766815 -0.0006670755 0.0071753473
0.005137612 -0.003952747 -0.002062176 0.00079959806 0.0021272898 -0.0046943985 -0.003201332 -0.008587218
0.0017840377 0.0001724026 0.0025731644 0.0019172353 -0.005103162 0.0040442315 0.0014566581 0.0022221236
0.0026493121 0.0005740934 -0.009363868 0.0032732931 0.0051462287 -5.7860656e-05 -0.007387844 0.00046366022
-0.00240203 -0.0054212897 -0.001155063 0.00028301927 0.0012171761 0.0024899167 -0.00183125 -0.000728988
0.0019332105 -0.002274214 0.0010082285 -0.0009449355 -0.0025528672 -0.00043578434 -0.0043953094 -0.00997228
0.004034238 0.0013393092 0.004339761 0.005054823 -0.0032845759 -0.0037958776 0.00031896407 0.0026603441
-3.3530523e-05 0.002126177 0.001353225 -0.003257818 0.005434022 -0.003941379 0.0013607501 0.0043079327
-0.0075938795 0.0071804384 -0.019220036 -0.0014970121 0.005295248 0.0052392767 0.0012179104 -0.00092250784
-0.0029116615 0.0018563411 -0.0062816474 -0.00029476092 -0.0029472816 0.0055222944 0.0019837874 0.00011607417
-0.0026309812 0.004672144 0.005083074 0.004583027 0.0075148577 -0.0003041566 0.00048158047 0.0008423244
-0.0017580787 -0.005509532 0.0043220953 -0.00016415777 0.0033614037 -0.00041284185 4.4911983e-05 0.0065790284
0.0032930768 -0.00087034504 -0.0009140619 0.0041101812 9.653691e-05 -0.000807093 0.0049759387 0.00053223927
0.0049564284 -0.0049016722 -0.0015447865 0.0008112658 -0.008138857 -0.0009648081 0.0006582354 -0.0002014637
-0.0021143872 0.005739033 -0.0009589873 0.0032896479 0.0057538804 -0.0044156 0.002102785 0.0019293453
-0.00057163753 0.0008491895 -0.00091336155 -0.0031054842 0.007121033 0.0026723004 -0.0011303717 0.0028764745
0.0013595124 -0.0057194973 0.0007710034 0.002796033 0.006839686 0.0033259615 0.006625305 0.002901447
6.0553997e-05 -0.0023690718 -0.00065683364 0.00012296945 -0.0035499579 -0.0018934904 -0.0013397052 -0.004618383
0.0008768151 -0.00018730092 0.0033283054 -0.00245846 -0.0007426101 0.0030787108 0.0048108837 0.0008791741
-0.00091228244 -0.003323697 -0.0006075361 -0.00593142 -0.0047382633 0.0018774632 -0.0039455425 0.0028984458
0.0008801756 -5.918613e-06 0.0013384734 -0.007829092 -0.0052713933 -0.0030306182 0.0018573648 0.0030995952
-0.001651788 0.006394388 -0.0038485047 -0.009256646 0.0025283298 -0.001477673 0.0065881275 -0.00985418
-0.0015582079 -0.0011675386 0.0005069088 -0.00095075683 0.00057969877 0.0013877394 -0.0028981469 0.005047534
0.0018288099 -0.0015474128 -0.0041951537 -0.0030043614 0.0025787891 0.0027030057 -0.003254937 0.001004793
0.002568453 0.0044105216 0.003588279 -0.000926595 0.00043115293 -0.0044773975 -0.0034284997 0.004238886
0.00048126455 -0.0009359623 -0.0005042034 0.0051596067 0.0010270065 -0.0027477704 -0.0033190465 0.001601115
0.00016637001 -0.002552909 -0.0040708263 -0.0012253409 0.0014453303 -0.008035287 -0.008000218 0.0060149496
6.197569e-05 0.00070885057 0.0029178446 0.0029218206 3.0947966e-05 0.007139621 0.002526475 -0.0016094866

conv1.bias f4 [2048]
00000000: e7a0 923c c6e3 fe3c fe42 e1b9 a164 053d
00000010: 403a 2a3d 1677 4dbc e8b3 be3c b6e0 ae38
00000020: 24ad de3c 343e 143d 64bf 043b 008f 8d3b
00000030: a6bd c23c 90d5 66bc 43b3 223d 9e88 383c
00000040: 6734 29bd e7f7 a33c 1ca5 803d 55dd 023b
00000050: 2eec 2a3b f9b9 00bd 20b6 1bbb 5fb0 443c
00000060: 612f 44bd daf3 2abb ee85 65bc 6f32 2cbc
00000070: 5e25 003d 7313 243d 7780 b43c a131 1a3d
00000080: a1fa 3c3c 282b 62bd 450a 87bc c42b c83c
00000090: d4d2 643b 6405 523d e2a9 d53b 8a2c aa3d
000000a0: 5f77 593d 4a2e 26bb b819 ee3c 4262 80bc
000000b0: be13 113c 675a b03b d2a1 5c3c 6cd1 a6bc
000000c0: 0a23 ee3b 5c71 c2bb af93 223d ea87 f93b
000000d0: 83d8 26bd da79 41ba a059 0d39 064a 243d
000000e0: 6660 963c fa01 0cba 129a a1bc e89b 133d
000000f0: 6e25 403b fdff 863b 320b eb3b 289d fcbb
00000100: d1a5 903c 6f05 d6ba 052f b03b 8cb6 1a3c
00000110: 9dd1 e7bb e8d8 feb9 c019 57bc e899 333c
00000120: febc d639 6883 213d e961 febc d75b 20bc
00000130: 97f4 81bb b603 1f3c fe78 86bc 569a 233d
00000140: 84b3 563d 5212 37bb 154e d5bb 60ed 303d
00000150: 39f7 d63c 79d9 6b3b 7c8e 9bbc 1a31 6e3c
00000160: f3b1 23bc 09d5 1fbc 7e2e d8b9 75d4 ac39
00000170: 6f9a f2ba 5754 32bc 596f d43b 0802 5f3c
00000180: 22d0 cdbc e8b7 a23d aa64 afbc 7e9e e13a
00000190: 73c5 703c d8f5 143c cb40 8d3b 4514 9c3c
000001a0: 90b7 353b e42f 463d 1737 d53d 1154 bb3c
000001b0: 45c6 b13c c73b 963d 9e03 e5bc f449 bdbb
000001c0: 5a34 693c 1488 6bbc c8af f23d b822 723b
000001d0: 1d8b 24bc ccf5 263d 963f 7c3d 55fa 113b
000001e0: a05d f63b 7062 1dbd 2aec 873c 771a 16bd
000001f0: 17f0 35bc 7725 013d 531e bb3c 12bc 3a3d
00000200: 4efa 02bb deea 39ba 3f31 133c 2684 723b
00000210: 43d9 7f3b 708e 1e3b 38bb 0e3d 5a57 61bc
00000220: 447a 903c 8964 e63c 73b8 563c 7cdc 653b
00000230: 56fe c2bc 3cd8 a6ba babf 183c 69a6 a5bc
00000240: 0c2e 6a3c b82a 89bb ac8f 363d 2d85 5dbc
00000250: fdcf aa3c e75c d53b d0fc 22bb cb17 6abc
00000260: 5461 1a3a a7ee 67bb 5cc8 bbbc 6f26 233d
00000270: 26d1 9c3d 2cfd f1bb 1424 da3c 287e a53b
00000280: d38f cebb e042 333c c85a c1bb 13c6 e93c
00000290: d2c6 a53d b279 18bc 9110 ba3d 360e ed3c
000002a0: 12c8 9abb 0357 f2bc 3d39 2dbb 20a6 8bbb
000002b0: 5af1 7a3d 69f5 dd3c 257d 153c 7590 df3c
000002c0: 6105 19bb 3456 11bb eb74 3f3d 48b0 da3c
000002d0: 4530 823a 8b97 04bb efe2 b03c a444 3ebc
000002e0: fb01 b5bc 0f76 77ba 95c4 a8bb b850 293c
000002f0: c4a1 473d 43b5 49bc 7242 203d 2ee1 393b
00000300: 6902 4fbd 7fb3 4dbc a56f 2ebc 69ae 07bc
00000310: ed19 a43c ca0e 683d 01e0 a63a 0cd8 a9bc
00000320: 4d36 023d b8e9 6cbb ff51 a03c 628e c8bc
00000330: 7f4d 083d f5b1 263c e380 283d 05b5 aa3c
00000340: 6005 803c 10fb 403d 44d1 033d ea3c 9c3c
00000350: 5a1e 05bc 8e8e dd3c 04d0 813c 1fc8 193c
00000360: e81a 7a3c 23e3 9b3c b8d7 febc 3322 093d
00000370: 0d8c 19bd 4bb8 0dbc df74 f83b 9783 0abc
00000380: 9de5 b7bb 7cc6 1d3b 8860 703c f635 043c
00000390: 1203 9039 0a93 0a3d e67b c9bb 6598 d43c
000003a0: 4f28 d2bb 6942 36bd bd50 c43b ff7c 6c3d
000003b0: 2ae6 f13c 7d79 633c 6947 e0bc 2663 0ebc
000003c0: c027 8ebc 343b 773c a8ba 4a3c 31da 723d
000003d0: d162 b23c c221 d03c 0067 bfbb 1bc1 d13c
000003e0: e423 943a 34b6 ae3c 3d3c a33c b51e b2bc
000003f0: cc3d fe3b b195 d13c 55bb 1cbc 1095 25ba
0.01789899 0.03111447 -0.00042965257 0.03256667 0.041559458 -0.012540599 0.023279145 8.338822e-05
0.02718217 0.036192134 0.002025568 0.0043200254 0.023772072 -0.014089003 0.03972174 0.011263041
-0.04130974 0.02001567 0.06281492 0.001996835 0.0026080715 -0.031427357 -0.0023759678 0.012004941
-0.047896747 -0.0026085288 -0.014008982 -0.010510071 0.031285636 0.04005761 0.022033913 0.037644986
0.011534364 -0.05521694 -0.01648439 0.024434932 0.0034915702 0.051274672 0.0065204958 0.083092764
0.053092357 -0.002535718 0.029064998 -0.015671853 0.008854805 0.0053818705 0.013466315 -0.020363532
0.0072673606 -0.0059339236 0.039691623 0.007615079 -0.040733825 -0.0007380523 0.00013480196 0.040109657
0.018356513 -0.00053408707 -0.019726787 0.036037356 0.0029319185 0.0041198716 0.0071729654 -0.007709164
0.017657192 -0.0016328524 0.005376699 0.009442937 -0.0070745484 -0.00048608263 -0.013128698 0.010961987
0.0004095807 0.03943196 -0.031052547 -0.009787521 -0.003965925 0.009705475 -0.016415115 0.039942108
0.052417293 -0.0027934504 -0.0065095522 0.04319513 0.026240932 0.0035987778 -0.01898884 0.014538074
-0.009991157 -0.009755381 -0.0004123337 0.0003296469 -0.001850916 -0.010884366 0.0064830002 0.013611324
-0.02512366 0.079452336 -0.021410305 0.0017213372 0.014695513 0.009091817 0.0043107024 0.019052634
0.002772782 0.048385516 0.10410898 0.022867234 0.021700988 0.073356204 -0.027955826 -0.005776638
0.014233673 -0.014375705 0.11849934 0.0036946964 -0.010042933 0.040761754 0.061584078 0.0022274454
0.007518485 -0.038423955 0.016592104 -0.036646333 -0.011104605 0.03152987 0.022841608 0.045589514
-0.001998562 -0.0007092188 0.008983909 0.0037005036 0.003903941 0.0024193786 0.034846514 -0.013753736
0.017636426 0.02812411 0.0131055 0.0035074046 -0.023802917 -0.0012729238 0.009323055 -0.020220952
0.014293205 -0.0041860007 0.04457061 -0.013520521 0.02085113 0.006511319 -0.0024869926 -0.014287899
0.0005889137 -0.003539005 -0.022922687 0.039831575 0.076570794 -0.007384917 0.026628532 0.0050504394
-0.0063037663 0.010941237 -0.0059007145 0.028536832 0.080945626 -0.009306358 0.09085191 0.02893744
-0.0047235573 -0.029582506 -0.0026431822 -0.004261747 0.061265327 0.02709456 0.009124075 0.027290562
-0.0023349153 -0.0022176625 0.04674236 0.026695386 0.0009932598 -0.0020231928 0.021592585 -0.011613045
-0.02209567 -0.00094398943 -0.0051503875 0.010334186 0.048738256 -0.012311283 0.039125867 0.0028362977
-0.050539408 -0.012555002 -0.010646735 -0.008281329 0.020031894 0.05665473 0.0012731553 -0.020732902
0.031790067 -0.003615005 0.019570349 -0.024481956 0.03327703 0.010174264 0.04113854 0.02083827
0.015627563 0.04711443 0.032181993 0.019072015 -0.008124912 0.027045514 0.01584626 0.0093860915
0.015265204 0.019029206 -0.031108722 0.03347988 -0.03748708 -0.008649896 0.0075822915 -0.008454225
-0.005612089 0.0024074605 0.014671452 0.008069506 0.00027468108 0.033831634 -0.006148803 0.025951574
-0.0064134966 -0.044496927 0.00599107 0.057736393 0.029528696 0.0138839455 -0.027377801 -0.008690631
-0.017352939 0.015089799 0.012373604 0.059290115 0.021775635 0.025406722 -0.005841136 0.025604775
0.00113022 0.021327116 0.019926185 -0.021743158 0.0077588316 0.025584074 -0.009566148 -0.00063164625

conv1.lin.weight f4 [2048, 7]
00000000: 2347 64bd 0618 a0bd 92c4 5c3d cf33 e23c
00000010: 6a70 133e 95e1 4d3c 5001 18bd d924 b6bd
00000020: e750 5e3d 25eb 333d 2156 f93c a310 ce3d
00000030: 52b0 1ebc 4f0f e23d 38e4 9b3a 5092 913b
00000040: 1f32 483a de1c dc3b 723f 9dbc 7f26 543a
00000050: cfc9 0e3c 1d9b b33a 783e f23d 91a6 0bbd
00000060: a85f 1cbc 08b5 f2bd 1410 abbc f857 d03c
00000070: 02d9 d6bd 2940 2b3d 6d11 753d 4ad7 16bd
00000080: 5f87 d43d 651a 333c e6ce adba 8bfe 9b3d
00000090: be9e efbc b4c3 373d ddd5 4fbc ebeb 43bd
000000a0: 7885 e8bb 4f11 a93c 7f7f 56bd 3231 8c3d
000000b0: c938 b4bd 2403 98bc 7950 f13d 480b 0a3c
000000c0: ddf4 913d 34b3 113e eee1 3a3b cc10 6c3a
000000d0: 9447 9b3d f560 093e 901e 9c3d 8e61 373c
000000e0: 2dc1 583e 96c8 f43c 1dcd 23bd 198e 253d
000000f0: 20a9 e8bd 3e9b 6cbb 09cf a0bd 0b8a 8e3e
00000100: 1711 35bd 65dd abbb 0dd5 adbe 3aa8 d4bd
00000110: b150 c93b df8c 1d3e 2877 4dbd e0b0 a9bd
00000120: 5bcf d2ba ca6f 933c 0539 103e 714e 593c
00000130: 604a 08bd 2091 213b 54d0 90bb 002e 833b
00000140: 14fb 813c 5ba0 c23b 0396 ba3c 93a8 07bd
00000150: a603 10be 8013 dcbd cea6 3abd 710c bf3c
00000160: ce77 213d f420 3d3c 2539 a4bc 66eb b73d
00000170: a98d 2cbd b789 3d3e b876 d63b f27b 2e3e
00000180: d6b6 d6bb e4a0 8e3b 1225 fabd e33b 5fbe
00000190: 1ffd 443d 3ca9 6f3d ca63 c63c c144 203c
000001a0: 8337 2fbd 22b9 aebd 0e1c 62bd 2ad9 ce3c
000001b0: 3dec 373c b6d2 a13d 2b02 ffba cc4a 173c
000001c0: 859a 493e 60f5 8dbc 594a 433e 1302 e83c
000001d0: 6e08 aa3e dc80 413d ea96 103e 0722 abbc
000001e0: e1f0 5b3d f367 c73d 8106 173c 0836 973d
000001f0: d2c6 6fbc 744d 873d 53a9 a4bd 089e 073e
00000200: bf77 813d b3bd 153c aaa2 903d b8a3 553c
00000210: 7e4f 8dba 47d0 33bd 789e 48bb c6ee b8bd
00000220: c691 dfbc 2d49 5b3d e4b7 a53b 5b94 d4bc
00000230: c1ec d239 64a8 0dbc fea3 223c dada 10b9
00000240: 0410 d2bb acbd b3ba 6c1a ad3b 9cfb 91bc
00000250: 39df 14be bb03 35be dce1 c7bc 4c11 abbc
00000260: cc7e ffbb a635 f7bc fc0b 6f3a da13 a4bd
00000270: 1ced 8a3c 0707 413c d8d6 4dbd 355a 153c
00000280: 201b 023c 6b49 03be 88a0 10bd 047a acbc
00000290: cc7a 63b9 eb33 c93d 1bc2 36bb a8f8 c13d
000002a0: af40 083d c7e4 313d a2ef 6dbc a97d 263d
000002b0: c70d a13d 1c71 323d a52c 07bf a373 28bc
000002c0: 5865 973c 758d e8bc 2bf0 99ba daef b13d
000002d0: 2e06 343b 1a34 453c 5a4d c3bb 3907 91bd
000002e0: 02f2 293d 3c1a dbbc d5c5 913d 2fa0 e23c
000002f0: 1590 c7be 35c5 12be 150d 623c 711a dd3d
00000300: 6393 18bc 0c61 debc 2289 af3b 3322 b6be
00000310: 3cdb 19be 2453 20be eef6 25bd 7177 ec3c
00000320: c47c 4e3d 4048 073c 0479 1abd 87de 78bd
00000330: 71fb 833d 2d6f 11be c510 dc3b 8d4d ce3c
00000340: 2b3b d23c f87b 0abd 1a91 c1bc d70c af3c
00000350: 8ad0 803d 8b6d 583a a6d1 713b 2a4f 4cba
00000360: aced 883c d898 d3bc 4fb1 443d f95e 42bd
00000370: 8199 983c 5a70 43be 8687 44bc 4880 533d
00000380: d4e4 ed3d 1010 eb3c faca 093d 005f 673c
00000390: ab4e a3bd a039 21bb 743c 75bd a841 11bd
000003a0: 73e8 f33d 1fd1 d8bc 28c3 983d 932a f5bc
000003b0: 0cf5 393d 56a5 e3be 1545 a03d c0b1 e2bc
000003c0: 7919 39bc 52cb 93bb ef0d 993c f967 0d3c
000003d0: ffe7 f9bc a614 c0bd 3e29 0bbd e42e 1b3e
000003e0: 2f15 cbbb a18b 70bd cf7e 2ebc 449c 2abd
000003f0: 03be bcbd 5c25 0cbe f081 0ebe eefb 033c
-0.055731904 -0.07817082 0.0538984 0.027612595 0.14398351 0.01256599 -0.037110627 -0.08893747
0.054276373 0.043925423 0.030436577 0.10061767 -0.009685593 0.11038076 0.0011893576 0.0044424906
0.0007636863 0.0067173084 -0.019195292 0.00080928946 0.008715107 0.0013702844 0.11828321 -0.034094397
-0.009544291 -0.11850935 -0.02088169 0.025432572 -0.1049061 0.041809235 0.05983107 -0.03682641
0.103773825 0.010931586 -0.0013260513 0.076169096 -0.029250499 0.04486437 -0.012685266 -0.04783241
-0.007095989 0.020638136 -0.052367684 0.06845321 -0.087998934 -0.018556185 0.11782927 0.008425541
0.07126782 0.14228517 0.0028516012 0.00090051885 0.07582012 0.13415892 0.07623017 0.011192692
0.2116744 0.029880803 -0.039990533 0.040418718 -0.11360383 -0.0036103274 -0.07851989 0.27839693
-0.04420575 -0.005244898 -0.33951607 -0.10383649 0.0061436524 0.1538577 -0.050162464 -0.08285689
-0.0016083525 0.017997641 0.14084251 0.013263331 -0.033274055 0.0024653152 -0.004419366 0.0040032864
0.015866794 0.005939526 0.02277661 -0.03311975 -0.14063892 -0.10745907 -0.045569234 0.023321362
0.039420895 0.011543501 -0.02004678 0.089804456 -0.042127285 0.18509565 0.006544914 0.17039469
-0.0065525575 0.0043526758 -0.12214102 -0.21800189 0.048092958 0.058511004 0.024217505 0.009782017
-0.04277755 -0.08531405 -0.055202536 0.025250036 0.011225757 0.07901518 -0.0019455602 0.009234142
0.19687851 -0.017328918 0.1907133 0.028321302 0.33209556 0.04724203 0.14120069 -0.020890249
0.053696517 0.097366236 0.009217859 0.073833525 -0.014634805 0.0660657 -0.080401085 0.13243878
0.06321668 0.009139466 0.07062276 0.013039522 -0.0010781137 -0.0438998 -0.0030612033 -0.090299174
-0.02729119 0.053536583 0.005057322 -0.025949648 0.00040230717 -0.0086461045 0.009926794 -0.00013814439
-0.0064106006 -0.0013713143 0.0052826907 -0.017820172 -0.14538278 -0.17677204 -0.02439969 -0.020882271
-0.007797098 -0.030176949 0.0009118912 -0.08011599 0.016958766 0.011781461 -0.05025372 0.009115745
0.007941037 -0.12820975 -0.035309345 -0.021054275 -0.00021694152 0.09824356 -0.0027886692 0.094712555
0.033264812 0.04343107 -0.014522465 0.040647183 0.07863956 0.0435649 -0.528025 -0.010281476
0.018480942 -0.028387764 -0.0011744549 0.08688326 0.0027469504 0.012036348 -0.0059601488 -0.07081456
0.041490562 -0.026745908 0.071178116 0.027664272 -0.38977113 -0.14333041 0.013797064 0.10796059
-0.0093124835 -0.027145885 0.0053569237 -0.35572967 -0.15025038 -0.15656716 -0.040518694 0.028865548
0.050411955 0.008256972 -0.037713066 -0.060759094 0.06444443 -0.14202566 0.0067158663 0.025183463
0.02566298 -0.033809632 -0.02362876 0.021368427 0.06289776 0.0008256069 0.0036898642 -0.0007793779
0.016714893 -0.025829718 0.048020657 -0.047453854 0.018627884 -0.19085827 -0.011995202 0.05163601
0.11615911 0.028694183 0.03364084 0.014121771 -0.07973989 -0.0024600998 -0.059872106 -0.035463005
0.119095705 -0.026466904 0.07459098 -0.029927528 0.04539971 -0.4446208 0.07825676 -0.027672648
-0.011297577 -0.0045103217 0.018683402 0.008630746 -0.030506132 -0.093789384 -0.03397488 0.15154606
-0.0061975936 -0.05872691 -0.010650351 -0.041652933 -0.09215929 -0.13686126 -0.13916755 0.00805567

conv2.att_src f4 [1, 1, 22]
00000000: 5030 d43d 09cd fa3c 8418 3c3d d0b6 a1b9
00000010: 0cb0 cb3c c062 3d3d fdc1 37bc 5598 3fbd
00000020: 7bf8 6dbc 0d53 a93c 8af3 1e3c 2ba8 be3c
00000030: 9846 ae3c 1d5a 5ebd e9a2 c7bc 3cdf 78bc
00000040: 82c3 a8bc ff82 ec3c 4aae d9bc ce40 2c3d
00000050: deaf b4bd 9bda 213d
0.103607774 0.030615347 0.045921817 -0.0003084452 0.02486422 0.046236753 -0.011215684 -0.046776135
-0.014524574 0.020669485 0.009701619 0.023273548 0.021273896 -0.054285157 -0.024369674 -0.015189942
-0.020601038 0.028871058 -0.026572365 0.04205399 -0.088226065 0.03951512

conv2.att_dst f4 [1, 1, 22]
00000000: a871 29be 933e 083c 670d d83d 24a5 1c3c
00000010: 8d88 58bd 3d42 113d d58d 183c cc02 14bd
00000020: b3d5 543c 065c 4e3d ba0a d9bc 9ad1 d93d
00000030: 6aed e23c e81c f63b 8980 3c3d 17b2 d3bc
00000040: 2bfa f03d 8013 c1bd 7856 213d fe96 0cbd
00000050: bac2 47bd 085f e4bc
-0.16547263 0.0083157 0.10549431 0.009560857 -0.0528646 0.03546356 0.009311159 -0.03613548
0.012990403 0.05038073 -0.026494373 0.106356815 0.027701098 0.00751077 0.04602102 -0.025841756
0.11766466 -0.094275475 0.039389104 -0.034323685 -0.04876969 -0.027877346

conv2.bias f4 [22]
00000000: e33f b0bf 6e37 49bf 6b0b 7f3d 825b 43be
00000010: 77b1 3c3e cc96 193f 805f acbc ba4a d13e
00000020: 6181 bb3e 187c 4c3d c87c 5c3e 90f6 173f
00000030: a37d b43e f633 5f3f 5745 87bf be1c c6bf
00000040: cf21 1b3f f216 263f cdd9 7b3f 4bee 50be
00000050: 6960 343f a5b4 99bf
-1.3769497 -0.78600204 0.06226675 -0.19077876 0.18427072 0.5999572 -0.021041632 0.40877324
0.36622146 0.049923033 0.21531975 0.593606 0.35252103 0.8718866 -1.0568036 -1.5477521
0.6059846 0.6487876 0.9837921 -0.20403402 0.7045961 -1.2008253

conv2.lin.weight f4 [22, 2048]
00000000: 51bb ca3c 9e74 b83d d343 a6ba bb8b 73ba
00000010: f822 8f3d 69de a8bb 952a e83c c663 91bb
00000020: 83c2 88bd 4833 a1bd abaa 4739 a628 16bb
00000030: 0b7a febc b557 a93d c365 1cbd d1d8 c03c
00000040: b238 fe3d 6ca0 be3d 520f aa3d 3921 c4bc
00000050: baf0 afba 59dd aebd 8c2d fdbc c0b9 ec3c
00000060: a3b3 c4bd 45cf 973c 44df 9bbd 581a d5bc
00000070: 0f09 31bd 28a3 edbc d0a8 173d ad1a f8bc
00000080: e009 ddbc ce66 99bd def7 a9bc 59e0 0d3d
00000090: 6391 a4bd 8c99 c23d ded2 4fba fbed 403e
000000a0: 1232 923b 402e a1bd 138b 1dbd b50f 46bd
000000b0: 91f4 4ebd 9859 093d 01c5 fe3c 2651 5c3d
000000c0: 2d66 91bd 8669 2dbd 962b 89bd 3dc7 a6bd
000000d0: c733 cabd 2ff0 35bd dbcc 4bbd a8fe 6eba
000000e0: ab7c 8f3b 43a1 373b e858 193d 6449 48bd
000000f0: d7ff 30bd ff5b 8cbb f0a5 0cbd ed1c ddbc
00000100: 78ab 4cbc 23f1 f8bc cfb0 053d 29b9 033c
00000110: 083b c6bb f39e 6dbd 34af 25bd a172 9ebd
00000120: 876d 37bc 8d8b c43d f072 fa3c 4706 ddbc
00000130: 12b7 d63d 78cb ad3a dabb be3c d003 6f3d
00000140: d7c5 febc c4ec 21bc 31cc 1abc 9cac 8abd
00000150: 72a9 033d 1a1d a1ba a976 77bd da76 8fbd
00000160: d2cd 37bd de94 f3bc a7a1 b0bc 7ef3 cbbc
00000170: 3fdd e0bc ba64 85bd 19d7 a9bd 82d6 293d
00000180: 27dd ec3c ed55 e43c 1406 e3bd 278b 25bc
00000190: d981 08bd 007b 693c ee90 813d f514 e63d
000001a0: 008e 81bd 2c19 15bd d66c a13c ba02 5c3d
000001b0: a887 633d e791 213b 9b11 533d a576 93bc
000001c0: 376b 83bd 5593 cd3c f079 313e b205 90bb
000001d0: 3457 e3bb 7c63 1a3d 54d9 4d3d 7c59 a4bc
000001e0: 4816 d53a 494a b93c 1787 423c 282a 6d3d
000001f0: 331b 4d3d 38db c13c 7553 0fbd 0207 32bd
00000200: ffcb 2ebd bf4c d7bc 7a95 d33c 3e1f c0bc
00000210: 3b1d 6c3c 7ff1 51bc ac5d 93bb b16d b3ba
00000220: 2543 053d ce8d 513d 24d4 213d b90c fb3c
00000230: c689 013d ce3a ae3c ec02 a03c bd97 9fbd
00000240: 2ec5 1f3d a92c 3ebc f63c 913d a123 74bd
00000250: 2519 a63c 7c3a 413c f99e 01bd df9b e8bc
00000260: 187d 3b3d 2234 45bc 8874 e5ba 14ed 283c
00000270: 0436 393b 5640 ddbb 178a fb3c 684d 14bb
00000280: 628c e1bc bed9 a83c d29d 0abd 4596 7fbd
00000290: 93d5 a73c 4411 513d 784d 18bc 1abd b3bc
000002a0: b714 c43d c38a a6bd babe cdbb 539d c83c
000002b0: b2c6 31bb a1eb 17bd 9988 27bd fc01 5f3d
000002c0: 4154 fcbc 96a2 95bb 0cfc a0bb be7e b03a
000002d0: 40db b43b 1cbb a53b 51b0 00bd d346 56bd
000002e0: e5cc 6c3d 3ceb e23b 5c1c 82bc 98b0 e83c
000002f0: e42b 033d 5a1c 443d 6633 ac3c ba8d 16bd
00000300: 281c 17bd c46f 69bd fbc5 16bd 33ae ae3c
00000310: 59eb bcbd 7a69 9cbd 4a01 603d 3836 f63b
00000320: 4378 013d f08b b4bc 37c5 123d d194 363d
00000330: 9083 373b 4e4e c3bc 5423 09bd d946 353d
00000340: aa84 85bd 68fa 81bd 862b 243e 0c33 6dbd
00000350: 1e78 e1bc 3bf2 c5bc 5c27 e53c 7fa7 15bd
00000360: 053b a43b b657 88bd 5827 303c 45c1 653c
00000370: f533 87bd 10cf ebbc b652 2ebd 22d7 72bd
00000380: 696c 63bd 6e09 85bc 6013 ba3c 1b1d 883b
00000390: 464d b93b c15d 90bd 8487 edbd 95af e93c
000003a0: 3a62 1cbd 6fcf b43d d9ff 323b 830d 103d
000003b0: 8db0 aa3b e231 393d 2b40 443d db3b f8bc
000003c0: ccaa 5abd 8088 4abd a39f d4bd 0d4f 6cbd
000003d0: 75f8 843d dc71 3e3d a93e 503c 52f0 c5bc
000003e0: c4d2 453b 3022 62bd e641 613b 6849 b13c
000003f0: c53f 32bc e9aa e5ba bdba 3ebd f849 b63a
0.024747523 0.09006618 -0.0012685008 -0.0009290536 0.06989092 -0.0051534665 0.028340617 -0.0044369427
-0.06677725 -0.07871109 0.00019041698 -0.0022912412 -0.031064054 0.08268682 -0.038182985 0.023540886
0.124131575 0.09307942 0.08303703 -0.023941623 -0.0013423183 -0.085383125 -0.030905508 0.028897166
-0.096045755 0.018531451 -0.07610944 -0.026013538 -0.04322153 -0.029008463 0.037026227 -0.030286158
-0.026982248 -0.074903116 -0.020748075 0.034637783 -0.08035543 0.09501943 -0.0007927845 0.18840782
0.0044615353 -0.078701496 -0.03846271 -0.048354823 -0.050526205 0.03353271 0.031099798 0.053788327
-0.070995666 -0.042336963 -0.066977665 -0.081434704 -0.09873157 -0.04441851 -0.049755912 -0.0009116926
0.0043788753 0.0028019703 0.037438303 -0.048898116 -0.043212738 -0.0042834277 -0.034337938 -0.026991332
-0.012492053 -0.03038842 0.03263932 0.008039751 -0.0060495175 -0.058012914 -0.04045029 -0.077367075
-0.011195547 0.0959693 0.030572385 -0.026980532 0.10484137 0.0013259491 0.023282934 0.058353245
-0.031100197 -0.0098831095 -0.009448097 -0.06771204 0.032144018 -0.0012291998 -0.060415898 -0.07005091
-0.04487402 -0.029734071 -0.021561457 -0.02489638 -0.027449248 -0.06513353 -0.0829298 0.041464336
0.028914047 0.027873004 -0.11085144 -0.010103977 -0.033326957 0.014250517 0.06326471 0.11234466
-0.063259125 -0.03640096 0.019705217 0.053713538 0.055549294 0.0024653615 0.05153046 -0.01800091
-0.06416934 0.025094667 0.17331672 -0.00439521 -0.0069378857 0.037692532 0.05025609 -0.0200622
0.0016257251 0.02261843 0.011873028 0.05790153 0.050074767 0.023664102 -0.0349917 -0.043463714
-0.042675015 -0.026281713 0.025828112 -0.023452397 0.014411266 -0.012813925 -0.0044972505 -0.0013689307
0.032534737 0.051160626 0.039508954 0.030645715 0.03162553 0.021268275 0.019532643 -0.07792614
0.039006405 -0.0116073275 0.070917055 -0.05960429 0.020275662 0.011793729 -0.03164575 -0.028394638
0.045773596 -0.012036355 -0.0017506042 0.01031043 0.0028260956 -0.006752054 0.030705495 -0.0022629146
-0.02753276 0.02061164 -0.033841915 -0.062399168 0.020487582 0.051041856 -0.009295814 -0.021940757
0.095742635 -0.081319354 -0.00627884 0.02448908 -0.0027126488 -0.037089948 -0.040901754 0.05444525
-0.030801894 -0.004566501 -0.004912859 0.0013465506 0.0055193007 0.0050577056 -0.03141815 -0.052313637
0.05781259 0.006925015 -0.015882663 0.028404519 0.03202428 0.0478786 0.021020602 -0.036756255
-0.036892086 -0.056991354 -0.036809903 0.021323299 -0.092245765 -0.076373056 0.05468873 0.0075137876
0.03160883 -0.022039384 0.03583261 0.044575516 0.0028002001 -0.02384105 -0.033480957 0.04425702
-0.06519444 -0.06346589 0.16032228 -0.05791001 -0.027523097 -0.024163356 0.02797287 -0.03653669
0.0050119185 -0.066573545 0.010751568 0.01402313 -0.06601707 -0.028785259 -0.042559348 -0.059287198
-0.05552331 -0.016239848 0.022714317 0.0041538603 0.0056549637 -0.07049132 -0.11598113 0.028526107
-0.038179614 0.08828627 0.0027313142 0.035169136 0.005209035 0.045213588 0.047912758 -0.030301979
-0.05338554 -0.049446583 -0.10382011 -0.057692576 0.06492702 0.046495304 0.012710252 -0.024162445
0.003018544 -0.055208385 0.0034371554 0.021641448 -0.010879462 -0.0017522249 -0.046564806 0.0013907542
