backend/models/gcn_run1.pth (torch, 265612 bytes, 8 tensors)

conv1.att_src f4 [1, 8, 256]
-0.012489544 8.353498e-06 0.0027095336 0.011651596 -0.0048811734 0.0027777778 -0.0021517249 -0.016803985
-0.00011203668 -0.0005267835 -0.010029428 0.00069216464 0.0015458576 -0.012618404 -0.0045015602 -0.005530516
-0.013041433 -0.00051649543 -0.005942802 0.00013656361 0.0017097713 0.0066950694 0.002337047 0.00024336256
-0.011078495 -0.006701515 -0.0143275615 -0.0036742643 -0.0019706432 0.00073584716 0.0017826078 0.012760158
-0.003460882 -0.0014739955 -0.008931821 0.0027696928 0.008411723 -0.005058115 -0.0022239366 -0.0019494348
0.008115268 0.00977863 0.014038899 -0.009615335 0.006948376 0.0059010573 0.004510431 0.008321548
0.0015091783 -0.0039389185 -0.0073414724 -0.004696889 0.0065499134 -0.0016242726 0.0033290293 0.011671135
-0.0034477625 0.0029235824 0.0018145072 -0.001995826 -0.0052915458 0.00632882 0.007638689 0.00034346315
0.01037585 0.0070118126 -0.006639598 0.008579909 -0.008001825 -0.00016354622 0.0015007964 -0.0002804958
-0.0014357736 -0.0049604764 0.0070018778 0.0050027603 -0.007881799 -0.003776732 -0.008842794 -0.00026886794
-0.0047972794 -0.005235348 -0.009821612 -0.000634031 -0.001948108 0.007604455 -0.0003649135 0.00079851854
0.005550089 -0.006183373 -0.0030397843 0.0031316036 -0.004761153 -0.003829296 0.0010494549 -0.0008170119
0.0024536946 0.010718596 0.0005180664 0.00064803055 -0.005825585 -0.005058799 -0.010808542 0.002663406
0.01164761 -2.8579496e-05 -0.01850474 0.005948484 0.00044963165 0.011526043 0.010354404 0.0017921171
-0.00075387344 -0.016400738 -0.0027462807 -0.0068442766 -0.0101514645 -0.009566382 -0.0027656865 -0.003210491
0.006636852 0.010349823 -0.0073267454 -0.012007748 0.006908566 -0.0067029707 0.0017893052 -0.0066351765
0.006137035 -0.0002381328 -0.002615718 0.000642854 -0.013920063 -0.007597626 0.0030431985 -0.012996056
-0.002051695 -0.0012930214 -0.0021536215 -0.009365567 0.0056971423 -0.010071507 0.0019040423 0.00022620961
-0.0029272793 -0.011947623 -0.0044553825 0.0027419114 -0.00395304 0.0049555465 0.004071834 -0.0007467958
-0.010040018 -0.0067055607 -0.009578105 -0.0030733182 0.0076251663 -0.012333782 -0.0003489181 -0.0024512385
0.004626973 -0.0017563645 0.0012781684 0.005814795 0.0131675005 0.014717923 0.012373068 -0.00020661509
-0.008950376 -0.0039609596 0.0001103508 -0.0077916128 -0.0017357212 0.010179474 -0.0047738985 -0.0040492304
-0.0037915353 -0.005791721 0.0041228025 -0.010324516 -0.008590792 -0.010035143 -0.007922582 0.004341684
-0.010528527 0.0037725857 -0.00079471624 -0.0011778452 -0.0014021588 0.010209202 0.0041826507 0.005346554
-0.012353243 0.0024127131 -0.0037316321 0.0062443786 0.007879548 0.015137548 -0.010800436 -0.006188153
-0.0026119747 -0.0046416945 -0.0056637945 0.00854365 0.003055323 0.0049959533 -0.0027661107 -0.0007004619
0.010183191 0.011885984 0.0005659647 0.009538785 0.0009525029 -0.00347227 -0.0011503462 -0.006905659
0.003735164 0.008820207 0.011666843 -0.0024990803 -0.0042688535 -0.004375423 0.011549364 -0.009520376
0.0036825917 -0.010295292 0.00307419 0.006006356 -0.0017901943 0.011376395 0.011307065 0.004202574
-0.003701911 -0.008885028 0.0005290205 0.011279582 -0.0013080142 0.0008332973 -0.008369533 0.004735656
0.0025490453 0.009847813 0.007962892 0.010797707 -0.012255264 -0.0049173012 0.002056647 -0.0009001471
0.0032759944 0.0048716124 0.0042724134 -0.006048502 -0.010987407 -0.0069419327 0.000583609 -0.0005199476
00000000: f2a0 4cbc 0026 0c37 6e92 313b 56e6 3e3c
00000010: 40f2 9fbb 610b 363b f403 0dbb 83a8 89bc
00000020: 3cf5 eab8 d817 0aba 7852 24bc 6272 353a
00000030: 609e ca3a 6cbd 4ebc d381 93bb 5539 b5bb
00000040: bcab 55bc 6c65 07ba d6bb c2bb 8432 0f39
00000050: 681a e03a 5062 db3b 2429 193b 242f 7f39
00000060: 9382 35bc 6298 dbbb 26be 6abc edcb 70bb
00000070: e825 01bb dee5 403a 64a6 e93a fb0f 513c
00000080: f7cf 62bb 1533 c1ba c656 12bc bc83 353b
00000090: 53d1 093c 8bbe a5bb 77bf 11bb 2d84 ffba
000000a0: e7f5 043c 8c36 203c 6903 663c a389 1dbc
000000b0: 34af e33b a85d c13b 3dcc 933b 1a57 083c
000000c0: 9fcf c53a 0b12 81bb bc90 f0bb 5ce8 99bb
000000d0: a8a0 d63b 8be5 d4ba d82b 5a3b 4a38 3f3c
000000e0: dbf3 61bb 9399 3f3b c2d4 ed3a 67cc 02bb
000000f0: b464 adbb fd61 cf3b f84d fa3b d812 b439
00000100: 78ff 293c 59c3 e53b fc90 d9bb bf92 0c3c
00000110: 161a 03bc 9b7d 2bb9 5fb6 c43a 820f 93b9
00000120: 9130 bcba 7e8b a2bb 0270 e53b 32ee a33b
00000130: a922 01bc 0c83 77bb 5ee1 10bc d8f6 8cb9
00000140: 7f32 9dbb 488d abbb d4ea 20bc 1a35 26ba
00000150: a857 ffba cb2e f93b dc51 bfb9 ac53 513a
00000160: 85dd b53b e49d cabb 1e37 47bb 973b 4d3b
00000170: 7203 9cbb edf4 7abb dd8d 893a be2c 56ba
00000180: 2ace 203b 0d9d 2f3c d9ce 073a 98e0 293a
00000190: 8de4 bebb 48c4 a5bb 5016 31bc 8a8c 2e3b
000001a0: 9ed5 3e3c 00be efb7 4197 97bc 80eb c23b
000001b0: 8abc eb39 bad7 3c3c 85a5 293c 79e5 ea3a
000001c0: 979f 45ba d75a 86bc f2fa 33bb f445 e0bb
000001d0: 5452 26bc 50bc 1cbc 8540 35bb 1a67 52bb
000001e0: f379 d93b 4e92 293c 3215 f0bb 25bc 44bc
000001f0: 4161 e23b 98a4 dbbb 1f87 ea3a e56b d9bb
00000200: 2e19 c93b 49b3 79b9 776c 2bbb 3485 283a
00000210: fa10 64bc 82f5 f8bb 6670 473b 69ed 54bc
00000220: bb75 06bb 997a a9ba c623 0dbb 0972 19bc
00000230: 18af ba3b f602 25bc 0f91 f93a ae32 6d39
00000240: 99d7 3fbb f7bf 43bc 75fe 91bb a4b1 333b
00000250: 8188 81bb 2362 a23b 056d 853b 9ec4 43ba
00000260: e37e 24bc 52ba dbbb 7ced 1cbc b969 49bb
00000270: 88dc f93b a213 4abc ffee b6b9 f5a4 20bb
00000280: dd9d 973b d035 e6ba 3788 a73a 098a be3b
00000290: 80bc 573c 7123 713c 69b8 4a3c d1a6 58b9
000002a0: 99a4 12bc f0ca 81bb 226c e738 c950 ffbb
000002b0: 2481 e3ba cfc7 263c 5d6e 9cbb 68af 84bb
000002c0: 687b 78bb 7ac8 bdbb 9318 873b 2928 29bc
000002d0: 65c0 0cbc 716a 24bc b8cd 01bc af44 8e3b
000002e0: d87f 2cbc 7c3d 773b 8154 50ba ed61 9aba
000002f0: a4c8 b7ba 7f44 273c 9e0e 893b 2532 af3b
00000300: 4265 4abc 9c1e 1e3b 668e 74bb a59d cc3b
00000310: 3819 013c 7a03 783c 50f4 30bc fdc5 cabb
00000320: aa2d 2bbb 5b19 98bb 5a97 b9bb aafa 0b3c
00000330: d03b 483b 18b5 a33b a347 35bb 349f 37ba
00000340: 66d7 263c 6ebd 423c 405d 143a 9048 1c3c
00000350: 63b1 793a 068f 63bb 37c7 96ba de48 e2bb
00000360: a7c9 743b a182 103c 4926 3f3c 9cc7 23bb
00000370: bde1 8bbb b55f 8fbb 8b39 3d3c 5afb 1bbc
00000380: a357 713b 96ad 28bc 5a78 493b f7d0 c43b
00000390: f4a4 eaba 0f64 3a3c 4541 393c bfb5 893b
000003a0: c39b 72bb 8292 11bc f7ad 0a3a ffcd 383c
000003b0: ac71 abba a371 5a3a 5e20 09bc 902d 9b3b
000003c0: e20d 273b b958 213c ca76 023c dee8 303c
000003d0: 4eca 48bc 5021 a1bb d0c8 063b d9f7 6bba
000003e0: 11b2 563b 0ca2 9f3b 9aff 8b3b 8332 c6bb
000003f0: 8604 34bc 2779 e3bb 56fd 183a 184d 08ba

conv1.att_dst f4 [1, 8, 256]
-0.006364871 0.002733639 0.0030794037 0.0050497176 -0.0035987846 0.0064035207 0.002460066 -0.010659074
-0.0016512467 0.004480373 -0.0059894305 0.0015498445 -0.002596753 -0.003121085 -0.0038643002 -0.0035813146
-0.003022444 0.005240026 -0.0050502755 -0.0035584972 -0.0012236197 0.0005568436 -0.0007331129 0.002452416
-0.015931392 -0.001585844 -0.016627826 -0.010903279 -0.003516156 -0.0050837295 -0.0022054384 0.0055868016
-0.005752083 -0.009250033 -0.004125232 -0.002110269 0.0021518792 -0.00054026383 -0.0019884922 0.016953077
0.0006981462 0.0022989097 0.0062951995 -0.006167576 0.007638634 0.004891662 0.00037287897 0.0079937875
0.0001087381 -0.0051380442 -0.0054829507 -0.0031141764 0.002578183 -0.00042566782 0.0005064998 0.005883994
-0.009010386 0.003922634 0.004340116 -0.0013248357 -0.0033959427 0.0025502993 0.007851763 0.00076919526
0.007432859 0.005969853 -0.00044401898 0.008183499 -0.0010502015 -0.00023807163 0.0048068953 -0.0028237032
-0.004003188 0.0011671453 -0.0011182509 0.006268454 0.00046482764 -0.0018672878 -0.0011480028 0.0036707511
-0.0038661011 -0.003300216 -0.0053994195 -0.0024952514 0.0022954214 0.006378261 -0.002692499 -0.0021894171
0.0065211565 -0.005207637 -0.003641779 0.0056217844 -0.0035202825 -0.0055319346 -0.00022582844 -0.0064536617
0.009131383 0.004117722 -0.0062669087 0.00064707815 -0.004167617 -0.00743167 -0.0046180473 0.007416793
0.0060489047 -0.0011097362 -0.021081312 0.003063533 0.00028938282 0.005199775 0.0015759278 0.0026870416
-0.0038097235 -0.009468181 0.018369034 -0.008011671 -0.010548456 -0.005031959 -0.006923781 -0.003069185
0.005475945 0.0083208885 -0.0049162996 -0.0030628028 0.0014355998 -0.0032318148 0.002166282 -0.008901818
0.0022813615 -0.0012567693 -0.00046522592 0.0003448803 -0.010444233 -0.002298615 -0.0011350589 -0.008271607
-0.002843908 0.0011462256 -0.0020169695 -0.0032336975 0.0068108654 -0.0027230792 0.0017123201 -0.0013630202
-0.0018597054 -0.011508686 -0.002389162 -0.0005616094 -0.008164054 0.0064801206 0.0034766342 -0.00038367684
-0.0034538547 -0.0018658008 -0.012638486 -0.0050458834 0.00041807187 -0.0062630395 -0.004771031 -0.0049784915
-3.9264327e-05 0.0025086035 0.00020601347 0.0025629643 0.005089952 0.0047740736 0.0034949598 -0.0024058786
0.0005909689 -0.0041143 -0.00022867476 -0.002543216 -0.004317789 0.0011692911 -0.005035406 -0.0019747557
-0.006601222 -0.0039016732 -0.002622536 -0.0056887055 -0.0010213114 -0.005534245 -0.006936883 0.00047046627
-0.0008666456 0.0038525895 0.0007630539 0.003908052 -0.0009378908 0.0053637517 0.0038662422 0.0008113942
-0.014243961 0.0008440524 -0.0030908685 0.004812006 0.008424594 0.005482145 -0.000680896 -0.010322169
-0.0035981906 -0.0064081387 0.0011582033 0.007502152 -0.0014504245 0.005336385 -0.006757321 0.0034809653
0.008009842 0.0053314073 0.012166329 0.0054865605 0.00012410202 -0.004043677 0.003774871 -0.0063845464
0.00033477094 0.003175879 0.007467833 -0.0017097694 -0.009840925 -0.0031043019 0.0064389315 -0.01326329
-0.0019890117 -0.006020631 -0.0021668887 0.0017123814 -0.002701236 0.0032209884 0.0059283725 0.0010112657
-0.0009380877 0.00075489224 0.0021131148 0.0051984196 0.00032775468 0.0020936744 -0.0013886291 0.0034261933
-0.0010481155 0.0037276293 0.0063102418 0.0072305575 -0.004348158 -0.00044435158 0.007476129 -0.005641191
0.0023963847 -8.485504e-05 0.0018949446 -0.0112038795 -0.014948372 -0.009741358 0.0006433232 -0.0046853586
00000000: 6890 d0bb da26 333b d2cf 493b 1a78 a53b
00000010: 96d9 6bbb a0d4 d13b 0f39 213b 66a3 2ebc
00000020: a56e d8ba 18d0 923b fc42 c4bb 2724 cb3a
00000030: 492e 2abb 1e8b 4cbb 3340 7dbb 7db4 6abb
00000040: 3214 46bb 86b4 ab3b c87c a5bb ad35 69bb
00000050: dd61 a0ba 24f9 113a 602e 40ba b7b8 203b
00000060: 8d82 82bc 18dc cfba 1437 88bc aba3 32bc
00000070: 4f6f 66bb 6a95 a6bb 1e89 10bb 7d11 b73b
00000080: f87b bcbb 738d 17bc f42c 87bb 704c 0abb
00000090: 8b06 0d3b 7ea0 0dba 5d51 02bb 2ee1 8a3c
000000a0: cc03 373a 4ea9 163b f647 ce3b 6119 cabb
000000b0: 824d fa3b 3c4a a03b f87e c339 60f8 023c
000000c0: 530a e438 0a5d a8bb 53aa b3bb 3617 4cbb
000000d0: bcf6 283b 2b2c dfb9 a0c6 043a 85ce c03b
000000e0: 4ca0 13bc 7089 803b 8837 8e3b 1ca6 adba
000000f0: 778e 5ebb ec22 273b aea4 003c d2a3 493a
00000100: 578f f33b c29e c33b 38cb e8b9 1514 063c
00000110: eaa6 89ba dea2 79b9 2983 9d3b e10d 39bb
00000120: 2d2d 83bb e6fa 983a 4692 92ba 9a67 cd3b
00000130: 1cb4 f339 c8bf f4ba 9578 96ba fc90 703b
00000140: 6a5e 7dbb 7048 58bb 9ded b0bb 5f87 23bb
00000150: c86e 163b bb00 d13b a374 30bb 537c 0fbb
00000160: 6daf d53b d3a4 aabb eaaa 6ebb f236 b83b
00000170: 8ab4 66bb 3b45 b5bb 5ccc 6cb9 3d79 d3bb
00000180: cc9b 153c f5ed 863b a45a cdbb aea0 293a
00000190: 8190 88bb 5e85 f3bb fd52 97bb 9208 f33b
000001a0: e435 c63b 9174 91ba b7b2 acbc 8ec5 483b
000001b0: 4eb8 9739 e062 aa3b 5d8f ce3a 1419 303b
000001c0: 8eac 79bb 6e20 1bbc a87a 963c 6243 03bc
000001d0: 6ed3 2cbc 22e3 a4bb e2e0 e2bb 6124 49bb
000001e0: 8e6f b33b 5654 083c e918 a1bb 4eb9 48bb
000001f0: bc2a bc3a dbcc 53bb 2ef8 0d3b eed8 11bc
00000200: e582 153b 2eba a4ba 91e9 f3b9 0dd1 b439
00000210: 4a1e 2bbc 5ca4 16bb 42c6 94ba a285 07bc
00000220: dc60 3abb f33c 963a 222f 04bb 71ec 53bb
00000230: ae2d df3b b075 32bb ee6f e03a 5ea7 b2ba
00000240: 5cc1 f3ba ed8e 3cbc 7d93 1cbb f838 13ba
00000250: 86c2 05bc 3157 d43b 3ed8 633b 3c28 c9b9
00000260: 115a 62bb e38d f4ba a711 4fbc f057 a5bb
00000270: a830 db39 2f3a cdbb 4f56 9cbb 9d22 a3bb
00000280: c0af 24b8 6267 243b 5205 5839 68f7 273b
00000290: 9dc9 a63b d56f 9c3b b20b 653b f2ab 1dbb
000002a0: 40eb 1a3a 40d1 86bb 6ac8 6fb9 16ac 26bb
000002b0: 3d7c 8dbb e642 993a 0c00 a5bb e76a 01bb
000002c0: 104f d8bb 37b3 7fbb dade 2bbb 5268 babb
000002d0: 86dd 85ba 9d58 b5bb cb4e e3bb eaa8 f639
000002e0: 9a2f 63ba ba7b 7c3b ae07 483a 1e0f 803b
000002f0: c9dc 75ba 69c2 af3b c860 7d3b beb3 543a
00000300: 815f 69bc 6643 5d3a 2b90 4abb 08ae 9d3b
00000310: 4f07 0a3c 91a3 b33b 287e 32ba 511e 29bc
00000320: 9fcf 6bbb 5dfb d1bb dbce 973a 9dd4 f53b
00000330: 2c1c beba d8dc ae3b 846c ddbb e820 643b
00000340: b63b 033c 16b3 ae3b 4855 473c 9bc8 b33b
00000350: 6221 0239 d280 84bb d363 773b 7535 d1bb
00000360: 3284 af39 6822 503b b9b4 f43b 571a e0ba
00000370: d53b 21bc 8b71 4bbb acfd d23b 454e 59bc
00000380: 145a 02bb b748 c5bb 5c02 0ebb fc71 e03a
00000390: 3807 31bb 3817 533b cb42 c23b 728c 843a
000003a0: 00ea 75ba f6e3 453a 2f7c 0a3b 8157 aa3b
000003b0: 7dd6 ab39 0736 093b a902 b6ba fc89 603b
000003c0: ec60 89ba 3e4b 743b 25c6 ce3b 50ee ec3b
000003d0: fe7a 8ebb dcf7 e8b9 51fa f43b bdd9 b8bb
000003e0: aa0c 1d3b 34f4 b1b8 ca5f f83a 7a90 37bc
000003f0: 04ea 74bc 389a 1fbc b0a4 283a a387 99bb

conv1.bias f4 [2048]
0.020289231 0.010747646 0.010785745 0.016590996 0.06727759 -0.0032655308 0.032571033 0.022279555
0.0333179 0.029346108 0.0108882105 0.005579509 0.013623533 -0.012942252 0.025821978 0.031720877
-0.02941736 0.0035144703 0.07510321 0.025387589 0.018964393 -0.016096048 0.015216069 0.009427873
-0.050851405 0.004318227 -0.011549776 -0.012802051 0.019183755 0.056965377 0.013380827 0.009933991
0.008385295 -0.039876707 -0.03183345 0.0010962543 0.025348356 0.04484864 0.010548629 0.06156357
0.030393027 0.016268482 0.011026112 -0.005564902 0.019905867 -0.0064856247 -0.017451923 -0.011337211
0.023851132 0.010419537 0.05399402 0.034287848 -0.030221613 0.005117539 -7.610483e-05 0.040416304
-0.0057435255 0.003799617 -0.035957552 0.036688264 0.022212641 0.011897035 0.017180104 -0.008810853
0.013512945 -0.0009042335 -8.176977e-05 -0.017190995 -0.023577433 0.005594094 0.005494471 0.023287587
0.012863152 0.018655654 -0.031170035 -0.018101826 0.022059243 0.016458696 -0.029927446 0.046662282
0.04630783 0.008486379 0.01456457 0.038840186 0.052624203 0.0032845647 0.014372585 0.0077876337
0.0065016686 -0.013034767 0.010175359 -0.0064153094 0.0336932 0.020626452 0.0067102234 0.012338434
-0.020872079 0.033956744 -0.034453377 -0.013824105 0.028427688 -0.017071623 -0.00908758 0.0012893538
-0.00069404294 0.052903753 0.069548 0.016050603 0.029768616 0.05344688 -0.020119758 -0.014015623
-0.0005589793 -0.055720985 0.08539862 0.006228743 -0.019461015 0.0155799845 0.058964334 0.033393122
0.0020948255 -0.02052526 0.023366729 -0.033511512 -0.0293004 0.06037013 0.020191152 0.034988366
0.018891271 0.0021998712 0.040234316 0.0074123247 -0.0025230746 0.003896948 0.027734322 -0.01621586
-0.012646103 0.014032 0.028047545 0.00238949 -0.024512222 -0.0030143617 -0.013978115 -0.0010909068
0.015313895 0.0010407655 0.071200885 0.001975057 0.018385537 0.026015002 0.0066998797 -0.022047607
-0.027300812 -0.0136722885 -0.020639626 0.03498941 0.05137168 -0.0024341636 0.031447332 0.0236857
0.0014147945 -0.0030147545 -0.003352319 0.032094467 0.027348619 -0.012162785 0.06565067 0.0025496688
0.00453266 -0.009697973 0.009579719 -0.015695741 0.05545852 0.06384429 0.015887344 0.05121107
-0.016898463 -0.00888277 0.058869373 0.009547863 0.021366261 0.0015125517 0.022928197 0.01077566
-0.036282703 -0.01028273 -0.012201623 0.021440106 0.0579295 -0.04905114 0.049853303 0.006634305
-0.0520738 0.01265697 0.00932984 -0.008699365 0.04717496 0.052618083 -0.009960558 -0.043671127
0.013373543 -0.015782157 0.025186779 -0.017874867 0.023273794 0.032406658 0.03534869 0.0306495
0.010757087 0.05446252 0.04060803 0.026990056 -0.012536048 0.01648588 -0.005202232 0.037454493
0.03324865 -0.002381787 -0.04129311 0.033031445 -0.041715093 -0.026083983 0.0006140167 -0.011205404
0.023688907 0.014431189 -0.000610683 0.009686075 0.02131827 0.043282732 0.015976923 0.014783595
0.011531366 -0.032463636 -0.023500228 0.022895835 0.043274708 -0.0018144081 -0.014857804 -0.024328373
0.0030219017 0.017091934 0.028928788 0.061950892 0.036581017 0.022500005 0.0028593685 0.0044373674
-0.0033084275 0.052019093 0.03885345 -0.027395535 0.016588898 0.020609522 -0.012046259 0.008496716
00000000: 9a35 a63c e516 303c b2b6 303c d7e9 873c
00000010: d5c8 893d 8402 56bb 3469 053d 9d83 b63c
00000020: 5a78 083d 4067 f03c 7764 323c 50d4 b63b
00000030: 3d35 5f3c bd0b 54bc 9d88 d33c c0ed 013d
00000040: adfc f0bc 0753 663b b6cf 993d a2f9 cf3c
00000050: 375b 9b3c dcdb 83bc d24c 793c 5e77 1a3c
00000060: 9049 50bd ea7f 8d3b 463b 3dbc b2bf 51bc
00000070: 4027 9d3c 8754 693d 423b 5b3c 2ec2 223c
00000080: 7a62 093c c255 23bd cb63 02bd 31b0 8f3a
00000090: 5ba7 cf3c 35b3 373d 28d4 2c3c 152a 7c3d
000000a0: ccfa f83c 7b45 853c dea6 343c c859 b6bb
000000b0: a111 a33c 5d85 d4bb 56f7 8ebc b6bf 39bc
000000c0: 7363 c33c b5b6 2a3c d528 5d3d 6a71 0c3d
000000d0: 5193 f7bc 07b1 a73b 789a 9fb8 918b 253d
000000e0: 2f34 bcbb ff02 793b 3a48 13bd 6f46 163d
000000f0: 49f7 b53c c8eb 423c 4abd 8c3c 655b 10bc
00000100: 6665 5d3c 150a 6dba d07b abb8 21d4 8cbc
00000110: 7625 c1bc a94e b73b f70a b43b 9cc5 be3c
00000120: f8bf 523c bed3 983c 4d58 ffbc 484a 94bc
00000130: 96b5 b43c 63d4 863c 672a f5bc f320 3f3d
00000140: 47ad 3d3d 740a 0b3c 3ca0 6e3c e316 1f3d
00000150: 7a8c 573d da41 573b fe7a 6b3c 682f ff3b
00000160: f30b d53b c68f 55bc 8db6 263c 8437 d2bb
00000170: e201 0a3d cef8 a83c 6fe1 db3b 2527 4a3c
00000180: ecfb aabc 3a16 0b3d fc1e 0dbd 807e 62bc
00000190: 2fe1 e83c cad9 8bbc 13e4 14bc 89ff a83a
000001a0: 6ff0 35ba 9bb1 583d 2f6f 8e3d 8e7c 833c
000001b0: 50dd f33c 1eeb 5a3d 31d2 a4bc c9a1 65bc
000001c0: 7788 12ba b03b 64bd 79e5 ae3d 7c1a cc3b
000001d0: b56c 9fbc 3143 7f3c 9684 713d 3ac7 083d
000001e0: 5749 093b 9724 a8bc 956b bf3c 5e43 09bd
000001f0: 6407 f0bc ab46 773d ea67 a53c f64f 0f3d
00000200: dec1 9a3c b72b 103b bdcc 243d 16e3 f23b
00000210: 2b5a 25bb f063 7f3b 1733 e33c 20d7 84bc
00000220: 9a31 4fbc 79e6 653c f7c3 e53c fd98 1c3b
00000230: dbcd c8bc 998c 45bb 7704 65bc c2fc 8eba
00000240: 22e7 7a3c 4c6a 883a c5d1 913d f56f 013b
00000250: 449d 963c 6a1d d53c aa8a db3b 2f9d b4bc
00000260: f4a5 dfbc bc01 60bc 6f14 a9bc 0e51 0f3d
00000270: 1c6b 523d 7d86 1fbb ebce 003d 8308 c23c
00000280: a070 b93a 3093 45bb 94b2 5bbb 7d75 033d
00000290: 360a e03c 6b46 47bc dc73 863d 5818 273b
000002a0: b586 943b 3fe4 1ebc 41f4 1c3c 5b94 80bc
000002b0: 7928 633d ccc0 823d 2d26 823c b3c2 513d
000002c0: a56e 8abc 0a89 11bc 0321 713d a46e 1c3c
000002d0: 4c08 af3c d040 c63a ead3 bb3c 658c 303c
000002e0: 2c9d 14bd e578 28bc 51e9 47bc 29a3 af3c
000002f0: 7c47 6d3d d9e9 48bd fa32 4c3d 9664 d93b
00000300: 564b 55bd 2e5f 4f3c 2fdc 183c c887 0ebc
00000310: 883a 413d 0f86 573d 9c31 23bc 7fe0 32bd
00000320: b41c 5b3c 9549 81bc 8154 ce3c 506e 92bc
00000330: afa8 be3c d8bc 043d cac9 103d a914 fb3c
00000340: 7e3e 303c 1714 5f3d 9b54 263d 401a dd3c
00000350: ff63 4dbc 650d 873c 7c77 aabb e269 193d
00000360: bd2f 083d c117 1cbb f722 29bd fb4b 073d
00000370: 72dd 2abd 14ae d5bc f7f5 203a df96 37bc
00000380: 3d0f c23c cb70 6c3c 3e16 20ba 58b2 1e3c
00000390: a7a3 ae3c 3c49 313d 09e2 823c e436 723c
000003a0: 0eee 3c3c 97f8 04bd 8d83 c0bc 0c90 bb3c
000003b0: d240 313d 6fd1 edba 266e 73bc 4c4c c7bc
000003c0: 190b 463b 6204 8c3c 11fc ec3c 38c0 7d3d
000003d0: fad5 153d ee51 b83c 3e64 3b3b 5667 913b
000003e0: 34d2 58bb f911 553d cc24 1f3d 9a6c e0bc
000003f0: 71e5 873c 4dd5 a83c ac5d 45bc cf35 0b3c

conv1.lin.weight f4 [2048, 7]
-0.05893287 -0.059327476 0.09121742 0.029485524 0.16266653 -0.0049729985 -0.044367146 -0.09032917
0.055338047 0.07372329 0.039136786 0.118291676 -0.010988579 0.12417121 -0.0053217635 0.008159338
-0.013105895 0.06800272 -0.05959683 0.019399744 0.093531705 0.023735594 0.12584153 -0.06969324
-0.058992628 -0.12119317 -0.0011896745 0.036006756 -0.1320016 0.038902476 0.07897834 -0.11640556
0.1372645 0.022857195 -0.020535752 0.09591719 -0.0056512067 0.10640952 -0.076804265 -0.047399934
-0.03624976 0.045361143 -0.065952964 0.08147205 -0.10411035 0.007929102 0.15190533 -0.0008455802
0.07457621 0.12787387 -0.02616202 -0.02352105 0.08399287 0.10401055 0.15285726 0.012226513
0.17968066 0.013609822 -0.071468934 0.057667192 -0.10263978 0.00078598934 -0.06334671 0.17246437
0.0021969597 0.06827948 -0.16424172 -0.013078403 0.014257266 0.104096115 -0.06401378 -0.076581754
-0.03376639 0.07919965 0.14703368 0.010823651 -0.026907962 0.088619 0.008402598 0.016669221
-0.009078675 -0.04204508 0.005831693 0.009076727 -0.13461384 -0.11078431 -0.08696784 0.046959504
-0.0037069917 0.010264497 -0.01801827 0.08085432 -0.07072117 0.21976963 -0.010744584 0.12711164
-0.024670795 0.015185098 -0.09447183 -0.19737254 0.05222159 0.0631534 0.006412113 -0.001971652
-0.043713793 -0.11029744 -0.038240217 0.052954607 0.04596092 0.12344614 -0.0019709421 0.0012987794
0.10040333 0.02665873 0.14819029 0.0026973628 0.24561754 0.01065425 0.106862284 0.004086153
0.074752286 0.11987432 -0.0082966555 0.09917654 -0.060356498 0.08792101 -0.10093671 0.16164224
0.046445668 -0.011313794 0.07640563 0.057949807 -0.03354015 -0.088389486 -0.009542579 -0.12847759
-0.033097275 0.044870473 0.016169332 -0.06215072 0.045988087 -0.0058897953 0.021218713 -0.03827843
-0.078701116 0.027318975 -0.022344181 -0.059698936 -0.14245255 -0.18444726 -0.009070943 -0.03923924
-0.0028609494 -0.020139912 -0.015429246 -0.10115529 -0.0011083465 0.004728641 -0.105444655 0.013508371
-0.038292587 -0.11270444 -0.05359624 -0.012007164 0.0054141916 0.0974859 -0.008989305 0.10842623
-0.03607082 0.05440632 -0.009905973 0.090902925 0.042391367 -0.007104699 -0.39366704 -0.024357093
0.040168773 -0.023716478 0.026903713 0.14926338 0.009963399 0.044675194 -0.027298644 -0.068855554
0.047690917 0.0144917425 0.063415155 0.015344336 -0.33176577 -0.123526335 0.050067525 0.09369167
0.03723773 -0.034728393 -0.013712584 -0.331075 -0.122124225 -0.16105293 -0.0823386 0.032514613
0.03843875 0.0033954335 -0.04530364 -0.04882988 0.064470924 -0.16225901 0.06934519 0.0034795273
0.025707854 -0.04515686 -0.057944693 0.03581097 0.1015087 -0.0015152793 -0.084535114 0.014501138
0.0051136967 -0.051324733 0.04634217 -0.061881237 0.06842853 -0.17220074 -0.0023929689 0.04912189
0.116479635 0.048345566 0.060350385 -0.0062364317 -0.06948989 0.0036510497 -0.13125601 -0.073947504
0.12822618 -0.016799506 0.13163537 -0.06383408 -0.0048316508 -0.36599392 0.12932536 -0.0132493675
0.039023597 0.018421618 0.063795164 0.0075315353 -0.0233346 -0.10477422 -0.035016794 0.17116524
-0.01163039 -0.09436573 -0.011826651 -0.054965228 -0.10240163 -0.1789437 -0.13911489 0.012553026
00000000: 9863 71bd 5e01 73bd 33d0 ba3d a08b f13c
00000010: 0e92 263e 89f4 a2bb 53ba 35bd 80fe b8bd
00000020: 26aa 623d 3cfc 963d e54d 203d e842 f23d
00000030: 7109 34bc 7a4d fe3d 3062 aebb beae 053c
00000040: 1cba 56bc 0345 8b3d ce1b 74bd 36ec 9e3c
00000050: 8d8d bf3d 2671 c23c 9adc 003e 54bb 8ebd
00000060: 41a2 71bd 2034 f8bd daee 9bba d27b 133d
00000070: 6d2b 07be 3458 1f3d 65bf a13d 0a66 eebd
00000080: 118f 0c3e 033f bb3c 983a a8bc 3b70 c43d
00000090: c22d b9bb 3ced d93d 8e4b 9dbd 6f26 42bd
000000a0: a17a 14bd 9bcc 393d 5912 87bd d1da a63d
000000b0: cf37 d5bd 10e9 013c 128d 1b3e eda9 5dba
000000c0: 69bb 983d 5ef1 023e bc51 d6bc 38af c0bc
000000d0: 7404 ac3d 7c03 d53d 9d86 1c3e b651 483c
000000e0: 35fe 373e bbfb 5e3c 4e5e 92bd 6f34 6c3d
000000f0: ce34 d2bd da0a 4e3a ebbb 81bd 809a 303e
00000100: defa 0f3b 1dd6 8b3d fb2e 28be cc46 56bc
00000110: 4f97 693c 5830 d53d a819 83bd e5d6 9cbd
00000120: a04e 0abd 6d33 a23d ff8f 163e af55 313c
00000130: 166e dcbc e17d b53d 0dab 093c e48d 883c
00000140: b9be 14bc 7637 2cbd c917 bf3b 8db6 143c
00000150: 36d8 09be e2e2 e2bd 321c b2bd 9c58 403d
00000160: 00f1 72bb 6c2c 283c 0d9b 93bc f396 a53d
00000170: 43d6 90bd 4a0b 613e 0d0a 30bc 8e29 023e
00000180: 681a cabc ebca 783c 727a c1bd 071c 4abe
00000190: 4ee6 553d 9256 813d b41c d23b d536 01bb
000001a0: 3c0d 33bd a0e3 e1bd c6a1 1cbd eee6 583d
000001b0: 8541 3c3d 54d1 fc3d ec2a 01bb ce3b aa3a
000001c0: 43a0 cd3d 6963 da3c 32bf 173e 3dc6 303b
000001d0: 2a83 7b3e 2a8f 2e3c 9dda da3d 23e5 853b
000001e0: ba17 993d ab80 f53d b2ee 07bc 121d cb3d
000001f0: 6038 77bd ee0f b43d e8b7 cebd 8b85 253e
00000200: d03d 3e3d 7e5d 39bc 8e7a 9c3d c75c 6d3d
00000210: 6561 09bd 8c05 b5bd 7a58 1cbc a18f 03be
00000220: 0291 07bd 1aca 373d 8c75 843c c191 7ebd
00000230: 015e 3c3d 2fff c0bb ded2 ad3c d8c9 1cbd
00000240: 0d2e a1bd 0bcc df3c 250b b7bc df86 74bd
00000250: 15df 11be bedf 3cbe 4b9e 14bc 53b9 20bd
00000260: c47e 3bbb 75fc a4bc f3ca 7cbc 812a cfbd
00000270: f045 91ba b7f2 9a3b 5ef3 d7bd 3752 5d3c
00000280: b0d8 1cbd 96d1 e6bd bb87 5bbd b2b9 44bc
00000290: 8869 b13b b0a6 c73d e147 13bc 920e de3d
000002a0: ffbe 13bd 29d9 5e3d aa4c 22bc 502b ba3d
000002b0: 92a2 2d3d 89ce e8bb ba8e c9be 8788 c7bc
000002c0: 0388 243d 0f49 c2bc 2d65 dc3c 80d8 183e
000002d0: 863d 233c 56fd 363d 68a1 dfbc 2404 8dbd
000002e0: 8d57 433d c66e 6d3c cedf 813d cf66 7b3c
000002f0: 34dd a9be 60fb fcbd 9b13 4d3d 6be1 bf3d
00000300: 9786 183d 5c3f 0ebd bfaa 60bc aa82 a9be
00000310: 441c fabd 0feb 24be 24a1 a8bd 0b2e 053d
00000320: f371 1d3d ec85 5e3b 4f90 39bd d701 48bd
00000330: 5509 843d 3a27 26be da04 8e3d c808 643b
00000340: 4799 d23c 66f6 38bd 6a57 6dbd 86ae 123d
00000350: cbe3 cf3d 569c c6ba bf20 adbd 2e96 6d3c
00000360: cc90 a73b e239 52bd 4ad1 3d3d 2e77 7dbd
00000370: 4224 8c3d 6455 30be 5bd3 1cbb 0934 493d
00000380: e08c ee3d 0006 463d f731 773d fb5a ccbb
00000390: b750 8ebd 7346 6f3b fa67 06be ca71 97bd
000003a0: b94d 033e 1e9f 89bc 6ccb 063e 71bb 82bd
000003b0: d352 9ebb 8e63 bbbe de6d 043e e013 59bc
000003c0: 35d7 1f3d efe8 963c 0aa7 823d 19cb f63b
000003d0: 3428 bfbc de93 d6bd c56d 0fbd f145 2f3e
000003e0: 648d 3ebc d242 c1bd 92c4 41bc 3823 61bd
000003f0: f2b7 d1bd 043d 37be 2274 0ebe 35ab 4d3c

conv2.att_src f4 [1, 1, 22]
0.1358029 0.10285162 0.10695636 0.07356577 -0.007203112 0.1120579 -0.032245025 0.0058147092
-0.051643454 -0.010512311 0.048061635 0.06802847 0.11210416 -0.12221409 -0.045006733 -0.032071464
0.08529892 0.07016172 -0.0069641885 0.0639293 -0.22401018 0.08147533
00000000: ea0f 0b3e dfa3 d23d f00b db3d a7a9 963d
00000010: 1508 ecbb 9d7e e53d 5c13 04bd 5189 be3b
00000020: 1688 53bd d43b 2cbc 47dc 443d 8352 8b3d
00000030: de96 e53d 614b fabd fb58 38bd 5e5d 03bd
00000040: 33b1 ae3d f3b0 8f3d d933 e4bb 5ded 823d
00000050: ed62 65be 8adc a63d

conv2.att_dst f4 [1, 1, 22]
-0.11340686 0.09561757 -0.03758091 0.119030006 -0.02499069 -0.17029136 -0.078766875 0.13764574
-0.007169068 -0.0853198 -0.16556756 -0.17752096 -0.052847024 -0.08974102 0.092841536 0.030564353
0.16145279 0.06657589 -0.051623184 0.23867875 -0.036711562 0.110139504
00000000: db41 e8bd 25d3 c33d 71ee 19bd 01c6 f33d
00000010: 47b9 ccbc dc60 2ebe 8750 a1bd 01f3 0c3e
00000020: 80ea eabb 26bc aebd 8b8a 29be 0ec8 35be
00000030: 1f76 58bd 24ca b7bd b423 be3d 1862 fa3c
00000040: e153 253e f158 883d d572 53bd 3468 743e
00000050: dd5e 16bd d290 e13d

conv2.bias f4 [22]
-1.1972383 -0.7904507 0.075338334 -0.1916464 0.17273909 0.61656934 -0.024748234 0.3949717
0.38922122 0.09705775 0.22385219 0.5842515 0.3676595 0.90007675 -1.0024121 -1.245719
0.60966605 0.64140767 0.97192144 -0.20191269 0.7259364 -1.0642899
00000000: 1b3f 99bf fa5a 4abf fc4a 9a3d f43e 44be
00000010: 84e2 303e 7dd7 1d3f cfbc cabc bb39 ca3e
00000020: 0148 c73e 37c6 c63d 8239 653e 8291 153f
00000030: de3d bc3e 6e6b 663f 0a4f 80bf b873 9fbf
00000040: 1313 1c3f 4b33 243f d8cf 783f 33c2 4ebe
00000050: f8d6 393f a73a 88bf

conv2.lin.weight f4 [22, 2048]
0.042102903 0.1003286 -0.008390043 -0.0059859366 0.08076736 0.03174941 0.03769532 -0.04139673
-0.07294514 0.018220183 -0.015355773 -0.011255817 -0.048447356 0.067745134 -0.03691085 0.044327497
0.109557204 0.108803146 0.07025382 -0.03260335 -0.027009573 -0.07737783 -0.05262352 0.031727787
-0.058630172 0.042719644 -0.06411438 -0.030858634 -0.055119455 -0.050194487 0.032609187 -0.030512651
-0.030456915 -0.07462041 -0.0008044681 0.027659299 -0.08331813 0.039536133 0.0022967428 0.13843074
-0.0027153203 -0.077697255 -0.041721925 -0.044998873 -0.042083103 0.043633644 0.025009561 0.07643328
-0.051223207 -0.054077707 -0.07049528 -0.07554117 -0.084680736 -0.045341358 -0.056073643 -0.005994855
-0.016869742 0.01785523 0.053541813 -0.04944343 -0.043623183 -0.01766195 -0.044246953 -0.045646746
0.012493742 -0.026974509 -0.014602747 0.026358457 -0.007337671 -0.057886176 -0.029406186 -0.07735763
-0.01996022 0.08004848 0.0024040234 -0.03333774 0.10048893 0.004278491 0.037955813 0.06652965
-0.03823998 -0.019349491 -0.0037058494 -0.06599657 0.033553783 0.025518848 -0.06989488 -0.06940618
-0.055209573 -0.035845026 -0.028174687 -0.017293548 -0.031011913 -0.068640366 -0.07621309 0.029682713
0.061739516 0.026868995 -0.09395299 -0.014215042 -0.03946449 -0.0040550847 0.061461963 0.12491335
-0.06933047 -0.020923277 0.059687518 0.055129874 0.06904014 -0.0024190042 0.030727107 -0.024819361
-0.04697954 0.02428409 0.11116028 -0.029069474 -0.025870524 0.05480719 0.034010645 -0.027918195
0.018920753 0.049912497 -0.0069720238 0.03995164 0.03685459 0.03054805 -0.017430488 -0.06266602
-0.053634815 -0.034201063 0.050975684 -0.019531671 0.011004669 0.0053316336 -0.035733704 -0.024546053
0.010293276 0.068418995 0.04811292 0.035044078 0.013253878 0.028356943 0.02543083 -0.072921775
0.05415871 -0.033085853 0.06997533 -0.0693041 0.009239873 0.009768646 -0.007505665 -0.049612552
0.0060211774 -0.025059732 0.009119662 0.012177029 -0.0009617704 -0.01209306 0.02496602 -0.01907241
-0.043305967 0.04841271 -0.050001986 -0.08070816 0.02201077 0.024400838 -0.010203324 -0.027631681
0.09473489 -0.07016347 0.018657438 -0.01137585 -0.017805554 -0.05299861 -0.043792054 0.059991635
-0.03879941 -0.016160872 -0.032533675 0.0067272233 0.029048674 0.019099077 -0.045716118 -0.06587703
0.059392903 -0.0010404456 -0.013175421 0.039239038 0.052785233 0.046758473 0.01944137 -0.044399343
-0.010402107 -0.07123712 -0.0539117 -0.008122041 -0.09580803 -0.06614878 0.06697831 -0.0039134785
0.029193426 -0.048876088 0.053917777 0.06571646 -0.0035735075 0.008690185 -0.048110742 0.065234
-0.054476794 -0.059631247 0.13954902 -0.063420594 -0.047678545 -0.021141673 0.054401204 -0.04659766
-0.018098615 -0.058728285 0.030334592 0.012784316 -0.078049764 -0.030966824 -0.039267886 -0.05786342
-0.067437045 -0.021239877 -0.0049710358 -0.01640707 0.008476125 -0.059410356 -0.106417306 0.020033145
-0.029670855 0.07885405 0.023618976 0.03644583 -0.004141243 0.06793463 0.04595685 -0.047582168
-0.06503497 -0.053866923 -0.10056659 -0.02653108 0.072552 0.052345015 0.028072985 -0.051390108
0.019695552 -0.068553075 -0.0147656 0.019774392 -0.013270856 -0.015740206 -0.053978164 0.011756734
00000000: 1874 2c3d 1579 cd3d 6476 09bc ad25 c4bb
00000010: 5c69 a53d ab0b 023d 6866 1a3d 9e8f 29bd
00000020: 4364 95bd 7e42 953c c896 7bbc 516a 38bc
00000030: bc70 46bd f6bd 8a3d d52f 17bd c090 353d
00000040: 875f e03d 2fd4 de3d 3ce1 8f3d 178b 05bd
00000050: 2e43 ddbc 4578 9ebd c38b 57bd fff4 013d
00000060: 3126 70bd cbfa 2e3d 664e 83bd 3fcb fcbc
00000070: f0c4 61bd bc98 4dbd 3691 053d abf5 f9bc
00000080: c880 f9bc 96d2 98bd f1e2 52ba c195 e23c
00000090: b2a2 aabd a4f0 213d f384 163b cac0 0d3e
000000a0: 84f3 31bb bd1f 9fbd 9ce4 2abd bd50 38bd
000000b0: 555f 2cbd 31b9 323d dae0 cc3c 0d89 9c3d
000000c0: 6dcf 51bd 9680 5dbd d45f 90bd 54b5 9abd
000000d0: 186d adbd dcb7 39bd 7aad 65bd 7d70 c4bb
000000e0: 6a32 8abc 2245 923c a94e 5b3d 3285 4abd
000000f0: 39ae 32bd cbaf 90bc 4b3c 35bd 15f8 3abd
00000100: 8db2 4c3c a5f9 dcbc 5c40 6fbc b1ed d73c
00000110: d870 f0bb 0e1a 6dbd 3ee5 f0bc ad6d 9ebd
00000120: 9e83 a3bc 75f0 a33d d28c 1d3b 278d 08bd
00000130: 24cd cd3d 9532 8c3b 8e77 1b3d b240 883d
00000140: 86a1 1cbd d382 9ebc d6dd 72bb 3629 87bd
00000150: b16f 093d e70c d13c 0c25 8fbd d424 8ebd
00000160: 6f23 62bd 3cd2 12bd 9ace e6bc 33ab 8dbc
00000170: b20c febc 5293 8cbd 9c15 9cbd 2929 f33c
00000180: 93e2 7c3d 5e1c dc3c 6d6a c0bd 35e6 68bc
00000190: 84a5 21bd 84e0 84bb 8abf 7b3d 92d2 ff3d
000001a0: 22fd 8dbd 4b67 abbc e67a 743d ddcf 613d
000001b0: eb64 8d3d 2888 1ebb 6ab7 fb3c f951 cbbc
000001c0: 9e6d 40bd 6eef c63c 00a8 e33d 1b23 eebc
000001d0: 6cee d3bc 817d 603d bf4e 0b3d b3b4 e4bc
000001e0: b2ff 9a3c 0c71 4c3d 9375 e4bb 55a4 233d
000001f0: d7f4 163d e73f fa3c 62ca 8ebc 0b57 80bd
00000200: 2eb0 5bbd 6a16 0cbd e1cb 503d e200 a0bc
00000210: ed4c 343c fcb4 ae3b 815d 12bd ce14 c9bc
00000220: 21a5 283c 421f 8c3d 0e12 453d 618a 0f3d
00000230: cb26 593c d24c e83c 5154 d03c 0358 95bd
00000240: 86d5 5d3d 0885 07bd 3a4f 8f3d 4fef 8dbd
00000250: d662 173c ac0c 203c 15f2 f5bb 8836 4bbd
00000260: 4c4d c53b 114a cdbc a36a 153c 2982 473c
00000270: 521f 7cba f821 46bc 8a85 cc3c be3d 9cbc
00000280: 9961 31bd 684c 463d e2ce 4cbd 524a a5bd
00000290: ee4f b43c 44e4 c73c d82b 27bc d65b e2bc
000002a0: 5e04 c23d deb1 8fbd 7cd7 983c c661 3abc
000002b0: f4dc 91bc 1215 59bd 4c5f 33bd cab9 753d
000002c0: 21ec 1ebd ce63 84bc 0842 05bd 0a70 dc3b
000002d0: 7cf7 ed3c ab75 9c3c d340 3bbd 89ea 86bd
000002e0: f945 733d 905f 88ba b9dd 57bc 1db9 203d
000002f0: 5435 583d d085 3f3d 8243 9f3c 16dc 35bd
00000300: 996d 2abc c4e4 91bd 84d2 5cbd 4f12 05bc
00000310: 0037 c4bd 0379 87bd ed2b 893d a33c 80bb
00000320: 0d27 ef3c 4b32 48bd e3d8 5c3d 5a96 863d
00000330: 8231 6abb 4761 0e3c c50f 45bd 6799 853d
00000340: 0f23 5fbd e53f 74bd f0e5 0e3e a8e2 81bd
00000350: 944a 43bd 4d31 adbc ccd3 5e3d 30dd 3ebd
00000360: 8c43 94bc 128d 70bd 4080 f83c 4f75 513c
00000370: 8ed8 9fbd 23ae fdbc 5dd7 20bd 3202 6dbd
00000380: 6f1c 8abd 40ff adbc 12e4 a2bb 1f68 86bc
00000390: 72df 0a3c 4658 73bd 51f1 d9bd 8d1c a43c
000003a0: 4b10 f3bc 3b7e a13d 957c c13c 3948 153d
000003b0: 44b3 87bb 5021 8b3d 403d 3c3d 85e5 42bd
000003c0: 0e31 85bd 90a3 5cbd dbf5 cdbd b557 d9bc
000003d0: 2596 943d ba67 563d 51f9 e53c 6f7e 52bd
000003e0: 9158 a13c 8e65 8cbd 6aeb 71bc e8fd a13c
000003f0: 016e 59bc 9bf1 80bc 3518 5dbd 519f 403c
