backend/models/lstm_run2.pth (torch, 77660 bytes, 5 tensors)

lstm.weight_ih_l0 f4 [256, 7]
000000 06 a8 97 3c 7b c7 ba be 80 12 1d 3f d4 3c 83 3c
       0.018512737 -0.36480317 0.61356354 0.016020216
000010 da 4a 3e bd 1f 58 f0 3d a7 f1 13 be 40 63 e3 3f
       -0.046458103 0.11735558 -0.14447652 1.7764664
000020 be fc 8e bd 50 ba 0f c0 e9 6c 0e bf e6 9e 2e 3f
       -0.069818005 -2.2457466 -0.55634934 0.6821121
000030 de 17 29 3e a0 e3 c2 3f 50 a5 0a 3f c2 f0 d9 bf
       0.16513011 1.5225716 0.54158497 -1.7026598
000040 ab 0e 8b be c3 ac b5 3e 5f 94 88 bf 3b b2 e0 3e
       -0.27159628 0.3548337 -1.0670279 0.4388598
000050 81 5e 4e 3f 2f 05 85 bf 40 65 50 3f 67 02 77 3e
       0.8061295 -1.0392207 0.81404495 0.2412201
000060 43 7b c8 3e 6f 9a 15 be 10 53 9a 3e 6e 3a 2e 3e
       0.3915654 -0.14609693 0.30141497 0.17014477
000070 62 a8 3f be 07 d3 2c bf f2 f7 4c bf 88 77 1b 3c
       -0.18716577 -0.675095 -0.80065835 0.009488948
000080 4c f5 af be ed 70 08 bf 98 9d 21 3f a4 14 eb 3f
       -0.34366834 -0.5329731 0.63131094 1.8365674
000090 90 e1 bc bf 3e db 26 bf 59 33 74 3f 60 f4 08 c0
       -1.4756336 -0.6517829 0.9539085 -2.1399155
0000a0 f6 d8 94 3f 3e ec 9e 3f 31 10 ca 3c 2f 81 6e bf
       1.1628711 1.2415845 0.024665924 -0.9316587
0000b0 9d bc 88 bf 81 48 8f 3e e9 a7 9d be e2 c3 92 bc
       -1.068256 0.27985004 -0.30792168 -0.01791567
0000c0 d2 2c 7e 3e bf b0 d6 3f 10 c9 e8 bf e2 be 2c c0
       0.24821785 1.6772689 -1.818636 -2.6991506
0000d0 1c 68 8e 3f 35 d9 db bf 22 f7 4f 3f 67 b1 aa 3f
       1.1125522 -1.7175661 0.8123647 1.3335389
0000e0 ef ac 6b 3f ad c2 23 40 ce 36 13 40 92 26 ed 3f
       0.9206075 2.558757 2.30022 1.8527396
0000f0 48 15 05 c0 70 f6 e0 bf 25 56 60 3e b3 97 b0 3f
       -2.079424 -1.7575207 0.21907862 1.3796295
000100 5d 95 7f c0 96 d5 ea bf 9c 09 0a c0 07 34 f0 bf
       -3.9934914 -1.8346431 -2.1568365 -1.8765877
000110 cb 4a fd 3d f1 84 4b 3f fe 10 a2 bf 5f 1c b5 be
       0.12367781 0.7949973 -1.2661436 -0.35373208
000120 f7 e4 aa bf c8 6d a6 3e 0e 67 1c bf c4 d0 6f bf
       -1.3351125 0.3250563 -0.6109475 -0.93677926
000130 c9 78 df bf 37 de 62 3b 3c 0f 58 bf 3e fa af bf
       -1.7458736 0.0034617314 -0.84398246 -1.3748243
000140 b8 6c 9a 3e f9 bd 87 be e2 f9 00 bd 78 c1 8a 3e
       0.3016107 -0.26512125 -0.031488307 0.2710073
000150 4d 43 d8 3f ae 3e 16 c0 e0 24 ea 3f ce 69 3c 3f
       1.6895539 -2.3475757 1.8292503 0.73598945
000160 53 38 30 c0 cc 0e 53 3f 42 05 0a 40 9d a8 49 40
       -2.7534378 0.82444453 2.156571 3.1509163
000170 96 d8 82 c0 a9 23 4e c0 f9 65 57 bf c5 fa 96 bf
       -4.0889387 -3.2209265 -0.8413997 -1.1795279
000180 da 83 6f 3f 4f 73 34 40 ca 97 bf bf be ee 5b 3b
       0.93560565 2.8195379 -1.4968197 0.003355905
000190 f6 08 b8 bf b8 9b 83 3f 58 1c 06 bf 08 37 09 3f
       -1.4377735 1.0281897 -0.52387 0.53599596
0001a0 4e 21 1d c0 d8 9d a4 3d c7 47 a4 bf 59 54 b0 bf
       -2.4551578 0.08037919 -1.2834405 -1.3775741
0001b0 29 62 03 3f 3a 6e e4 be 53 6d 54 be bb 51 f4 3e
       0.51321656 -0.44615346 -0.20744829 0.47718605
0001c0 2c 1f 08 be 23 9c d5 3e 53 f9 19 be 40 8e 15 be
       -0.13293141 0.41720685 -0.15036516 -0.14605045
0001d0 67 ab fe bc bc 2f 39 bd b0 de 5c 3d d7 8d 22 be
       -0.03108759 -0.04521154 0.05392331 -0.1587442
0001e0 c2 f2 eb 3e cf 80 9f be 3d 45 46 be 81 ad cb 3c
       0.46083647 -0.3115296 -0.1936235 0.024863007
0001f0 3d 94 64 bd 49 44 9f 3d ad 4d d9 3f ef 29 ab bf
       -0.055805434 0.07776696 1.697683 -1.3372172
000200 74 91 3c 40 db 23 cb 3f 59 48 47 be b8 54 86 bf
       2.9463778 1.5870317 -0.19461192 -1.0494604
000210 5d d7 00 40 a9 9b 85 bf 04 7d 50 3f b9 7c ed 3e
       2.0131447 -1.0438129 0.8144076 0.46384218
000220 fa 11 52 3e cd d9 c5 be ff 75 17 3e 71 b2 df 3e
       0.2051467 -0.3864273 0.14791106 0.43690827
000230 7d 5d bc bf c5 5d ac be a4 cc c8 3e 6e 1e 88 3e
       -1.471603 -0.3366529 0.39218628 0.26585716
000240 4b 3f dc bd d1 07 27 be 8a 31 97 bf 51 bb b4 3f
       -0.1075426 -0.16311575 -1.1811993 1.4119664
000250 62 42 15 c0 0c 7b 2c bf a1 52 6e bf c3 69 13 c0
       -2.3321767 -0.67375255 -0.9309483 -2.3033302
000260 5d 7e a3 3e 0a 33 95 bf 2b 6b b1 3f 59 21 b5 be
       0.31932345 -1.1656201 1.386083 -0.35377005
000270 bb 46 07 c0 1c 3e 17 bf 8f ed e5 3e 3c eb c4 be
       -2.113692 -0.59079146 0.44907805 -0.3846072
000280 a9 b3 b4 3f 9c b2 46 be 03 25 0e 3f c7 18 69 3e
       1.4117328 -0.19404072 0.55525225 0.22763358
000290 fc 67 5c bd 02 19 09 be 66 5d 9a bd 88 dd 8a 3e
       -0.053810105 -0.13388446 -0.075373456 0.2712214
0002a0 97 f3 1e be 21 f0 2f bd 1c 04 7f bf 24 61 07 bd
       -0.1552261 -0.042953614 -0.99615645 -0.033051625
0002b0 ec d9 84 3d bb 4c 02 be 6c 51 19 3e a1 59 22 3f
       0.06486878 -0.12724583 0.14972466 0.6341801
0002c0 96 89 32 40 6f e5 0c 40 c9 21 1c bf a3 46 c6 bf
       2.7896476 2.2015035 -0.6098905 -1.5490307
0002d0 03 36 e7 bf 0d 36 0c be 1e a9 f7 bd f5 87 dc 3e
       -1.8063358 -0.13692494 -0.120928034 0.43072477
0002e0 fe 99 62 be cf 93 04 be 8a 7e 8d bc d0 a5 50 bd
       -0.22129056 -0.1294701 -0.017272253 -0.05093938
0002f0 68 f7 6c 3d 9f 28 9d 3d 74 25 09 bf 14 f0 2c 3f
       0.057853132 0.076737635 -0.53572774 0.6755383
000300 02 e5 8a 3d 93 36 45 bd 72 e5 0e 3e 78 76 21 be
       0.06781961 -0.04814775 0.13954714 -0.15767848
000310 87 63 81 be 54 df 14 be c0 3a 4a 3f 4c 13 01 3e
       -0.25271246 -0.14538318 0.78995895 0.12605017
000320 a2 8f d3 be de f7 34 3c a4 09 35 3d 9a 5a d5 bd
       -0.4132052 0.011045424 0.044198647 -0.104176715
000330 8d 53 ad 3e 67 9e c3 be 6c 93 30 3d e7 b9 95 3c
       0.33852807 -0.3820679 0.043109342 0.018277122
000340 04 f4 61 3d 21 d8 9d bd 8f 87 b1 bd 38 a8 83 3f
       0.055164352 -0.07707239 -0.08668434 1.0285711
000350 a4 9c 7a 3e 08 a6 38 3f f1 ce a2 be 51 d0 6f 3f
       0.24473816 0.72128344 -0.3179851 0.9367724
000360 fa e1 25 3f 95 a0 05 3f 6f 2a 07 c0 6b f1 b2 bf
       0.6479794 0.52198154 -2.111965 -1.3979925
000370 18 78 63 3f 25 13 60 bf 89 d2 58 be fb f0 9e 3f
       0.88855124 -0.8752921 -0.21174063 1.2417291
000380 c3 2b 84 bf 0f ec 56 c0 66 d6 6c be 00 e7 33 c0
       -1.0325855 -3.3581579 -0.23128662 -2.8109741
000390 35 7c f0 be d4 4e ff 3f 69 0f be 3e 45 e0 3a 3e
       -0.46969762 1.9945931 0.37121132 0.18249615
0003a0 ea 4c 88 bf f4 32 48 be 8f 16 db 3d 73 76 14 bf
       -1.0648472 -0.19550687 0.10697662 -0.5799324
0003b0 13 67 20 3f 98 84 d8 3e a7 af a5 bf e4 a2 79 c0
       0.6265728 0.4228866 -1.294423 -3.900567
0003c0 24 60 96 bf 59 8f 50 c0 b3 5d 9b be e2 30 43 40
       -1.174809 -3.2587492 -0.30344924 3.0498586
0003d0 f4 25 f4 3e 3f a4 4b be 05 a2 01 3f c0 01 79 3b
       0.47685206 -0.19886874 0.5063785 0.0037995428
0003e0 36 8f 13 be 0d fe f3 bc 9f f0 f8 bc 6c 65 14 3e
       -0.144101 -0.029784227 -0.030388175 0.14491814
0003f0 a4 c7 6d bd 01 24 59 bf f3 a3 c0 bf 81 35 8a 3e
       -0.05805172 -0.8482056 -1.5050033 0.26993945

lstm.weight_hh_l0 f4 [256, 64]
000000 a4 43 ca bd 32 53 c6 bd c8 94 a0 bc 58 88 be bc
       -0.09876183 -0.09683837 -0.019602194 -0.023258373
000010 80 49 a7 3d 96 f1 da 3d 20 c2 c0 bd 42 a3 d3 bd
       0.08168316 0.1069061 -0.094120264 -0.10333873
000020 f2 86 c3 bd 9e 0d f9 3d 20 89 ed bd 5c 46 65 bd
       -0.09547223 0.121608004 -0.1159842 -0.055975303
000030 ac b1 a8 3d dc 80 64 bd 28 68 ff 3d 90 80 eb 3c
       0.08237013 -0.055786952 0.12471038 0.028747827
000040 90 93 f2 3c c0 13 17 3b 98 b5 9b bd ce 87 97 3d
       0.029611379 0.0023052543 -0.07602996 0.073989496
000050 46 d9 80 3d 68 54 3e bd b8 4b 37 3d 5c 85 3d 3d
       0.062914416 -0.046467215 0.044749945 0.04626976
000060 2c bb 52 3d 70 fd 87 bd 80 f6 21 bd 54 9c a4 3d
       0.051448032 -0.06640136 -0.03954172 0.0803763
000070 10 a9 de 3d dc 12 1c 3d b0 b7 43 3d 44 91 5d bd
       0.1087209 0.038103923 0.0477826 -0.054093614
000080 4e 3e c4 3d 46 e9 d5 bd 12 28 c7 bd b4 f9 14 3d
       0.09582196 -0.10444884 -0.0972444 0.036370948
000090 2a 86 b8 3d 48 b7 d4 bd 80 b3 b1 ba 06 e9 fe 3d
       0.09009965 -0.103865206 -0.0013557523 0.124467894
0000a0 36 98 da bd 2c b5 0f 3d d4 bc 93 3d a0 d0 80 3d
       -0.10673563 0.03508489 0.072137505 0.06289792
0000b0 d4 62 bf bd 50 ce 00 3d 00 20 fc b7 c0 10 1e bd
       -0.09345022 0.031446755 -3.0055642e-05 -0.038590193
0000c0 38 e7 74 3d 08 6d dd 3d 46 f9 e2 bd 9e 2d be bd
       0.05979082 0.10811812 -0.110827014 -0.092860445
0000d0 1c 0a ab 3d 60 07 47 bc 00 da ba bd 48 4c df 3d
       0.083515376 -0.012147754 -0.091236115 0.10903221
0000e0 70 a8 3e 3d 64 c0 6e 3d 98 08 dd 3c d0 db 38 3c
       0.046547353 0.058288947 0.026981637 0.011282876
0000f0 a8 24 72 3d 18 f6 21 bd 96 ef 9d bd 8c 98 c3 3d
       0.05911699 -0.039541334 -0.07711713 0.095505804
000100 56 59 ba bd b6 eb b5 bd 26 84 d8 bd 6c bd a3 bd
       -0.09099071 -0.08882849 -0.1057208 -0.07995114
000110 b8 f8 c4 bc 20 00 73 3c 60 0b 85 3d 86 14 ca bd
       -0.02404438 0.014831573 0.0649631 -0.09867196
000120 9a 2d ca bd 08 88 29 bd a8 67 b9 3c 30 e8 49 bd
       -0.09871979 -0.041389495 0.022632435 -0.049293697
000130 00 85 07 ba 78 73 23 bd dc 14 1f 3d 12 03 d1 bd
       -0.000516966 -0.03990504 0.038838252 -0.10205664
000140 c0 20 82 3d 88 a1 40 3d b8 06 40 bd 5a 7b c3 bd
       0.06353903 0.04702905 -0.046881407 -0.09545012
000150 5a d2 c5 bd 40 e7 c4 bd 60 03 5a bd a8 c1 64 bd
       -0.09659262 -0.0961442 -0.053225875 -0.055848747
000160 98 bb e5 3d d0 bd 1c 3d 78 09 ab bc d4 6b 00 bd
       0.11217421 0.038266957 -0.020878538 -0.031352833
000170 70 8b e7 bd 08 e6 25 3d 94 a9 f2 bd dc 34 0e 3d
       -0.113058925 0.040502578 -0.11848751 0.03471838
000180 6e 6d ae bd 06 a7 e7 bd d4 e0 5c bd 64 9b 11 bd
       -0.08516966 -0.11311154 -0.05392535 -0.035548583
000190 a0 d3 aa 3d 18 9b 6a bd 24 3e 95 3d 04 9d 60 bd
       0.083411455 -0.057276815 0.07287243 -0.05483724
0001a0 c8 c0 fa bc 70 5d aa bd 58 a4 e1 3c 56 c7 bd 3d
       -0.030609503 -0.08318603 0.027544186 0.09266536
0001b0 88 f4 6e bd f4 26 7b 3d 8e 14 bb 3d da 43 dd bd
       -0.058338672 0.061316445 0.0913478 -0.10803957
0001c0 1c b8 fb 3d 18 5f b5 bc 24 69 a8 bd fa 2b 9a bd
       0.122909755 -0.02214007 -0.08223179 -0.07527919
0001d0 74 31 ab 3d 94 50 43 3d ca 58 9c 3d b4 1b dc bd
       0.08359042 0.047684267 0.07634123 -0.107474715
0001e0 d0 64 19 bc 50 c2 af bd 06 ed 81 bd 76 fb ed bd
       -0.0093624145 -0.08581984 -0.06344037 -0.11620228
0001f0 b2 2e 89 bd f0 b9 8a 3c 08 30 6e bd f0 23 7b 3c
       -0.066983595 0.016934365 -0.058151275 0.015328392
000200 c8 53 eb bd 94 01 ec 3d 1e dc ec bd 30 a1 48 bd
       -0.114905894 0.115237385 -0.115654215 -0.048981845
000210 56 2e 8c bd fe 79 ae 3d e0 a3 74 bc 30 3f 4d 3d
       -0.068447754 0.08519362 -0.014931649 0.05010909
000220 10 5c d7 3c 86 fc 91 3d 14 cf d9 bd 00 88 a7 bd
       0.026289016 0.07128243 -0.106352 -0.08180237
000230 a4 02 6f 3d f0 1c 94 3d da 2b f0 bd d8 fb db bc
       0.058352128 0.07232082 -0.11727114 -0.026853487
000240 84 4c 13 bd 16 be 8f bd 26 d0 88 3d e8 2e ef 3c
       -0.035961643 -0.07018678 0.06680326 0.029197171
000250 5c b0 91 bd f8 61 71 3d a0 23 1b bc d0 15 f9 3d
       -0.07113716 0.05893132 -0.009468943 0.121623635
000260 60 5e a9 bc ec 6d 15 bd 40 a9 0d bd 76 d8 f9 bd
       -0.020674884 -0.036481783 -0.034585238 -0.1219949
000270 a6 84 a8 3d 34 c8 2b bd b4 41 f0 3d 0c 7b 03 3d
       0.08228426 -0.041938975 0.11731282 0.03209977
000280 d8 68 be 3c 6a 3e e3 bd 0c c6 68 3d 9e 0c de 3d
       0.023243353 -0.11095889 0.056829497 0.1084225
000290 5a 92 80 bd e4 73 0f 3d e4 97 ae 3d 22 75 bd 3d
       -0.06277914 0.03502263 0.085250646 0.09250857
0002a0 90 5b 13 3d 10 66 76 bc 22 c1 9b bd 48 3a c6 bd
       0.035975993 -0.015038982 -0.076051965 -0.09679085
0002b0 a4 8e f7 3d f8 05 eb 3c 64 d5 fb 3d 38 5d af bd
       0.120877534 0.02868937 0.122965604 -0.08562702
0002c0 50 87 0b bd 84 81 fa bd aa 3a eb bd 70 ca c8 bd
       -0.03406459 -0.122317344 -0.11485799 -0.09804237
0002d0 24 55 01 3d 80 9a 9a bd 64 bd 74 3d d2 fe ed bd
       0.031575337 -0.07549 0.05975093 -0.11620869
0002e0 7e c9 fb bd 20 89 c3 3b 60 d4 3b bc e4 03 c9 bd
       -0.12294291 0.0059672743 -0.011464208 -0.09815195
0002f0 80 99 d1 bc 7a 8d ad bd 64 91 e7 bd e4 c6 54 bd
       -0.02558589 -0.0847425 -0.11307028 -0.05194749
000300 c0 84 24 3c 92 6b b4 3d 00 3f 74 3b e0 62 a4 3c
       0.010041416 0.0880958 0.0037268996 0.020066679
000310 84 31 a3 3d b2 40 ef bd 80 0e e8 bd 48 c2 78 3d
       0.07968429 -0.116822615 -0.11330891 0.060732156
000320 32 19 ae 3d 36 1c 99 3d 1a e0 82 bd 20 4e 82 bb
       0.085008994 0.07476084 -0.063904 -0.0039765984
000330 50 dd 67 3c cc 2c 50 3d 96 2a bf bd 00 c1 51 ba
       0.014151886 0.05082397 -0.093342945 -0.00080014765
000340 cc a5 0b bd 34 91 08 bd be b0 94 3d ac e9 95 3d
       -0.034093663 -0.0333416 0.072602734 0.0731996
000350 c0 46 23 3b 40 39 5e 3c 48 7e c7 3d 90 35 8d 3d
       0.0024913996 0.013563454 0.09740883 0.06894982
000360 d8 f8 3d bd f2 06 e9 3d 50 33 fa bd e8 1a 59 3d
       -0.046379894 0.11378278 -0.12216818 0.053004175
000370 f8 a4 e8 3c 50 0f 00 bc 14 a1 d7 bd 40 8c 08 3b
       0.028398976 -0.007816151 -0.1052877 0.0020835549
000380 88 04 ff bd 74 1d f0 3d 0c 61 89 bd b8 8b bd 3d
       -0.12452036 0.11724368 -0.06707963 0.09255165
000390 52 4a 94 3d aa bf c4 3d d0 6a 1c 3d 00 29 9b 3b
       0.07240738 0.096068695 0.0381878 0.004735112
0003a0 e6 2a 83 3d 60 d9 c5 bc 52 a9 88 bd 88 9c bd bc
       0.064046666 -0.024151504 -0.0667292 -0.023145929
0003b0 78 3d 5f bd c0 d0 d2 bc 08 2e 82 3d 18 23 8a bc
       -0.05450198 -0.025734305 0.06356436 -0.016862437
0003c0 30 56 b9 3c 00 bd 67 ba 42 8f cf bd b4 3c f7 3d
       0.022624105 -0.0008840114 -0.10134746 0.12072125
0003d0 fc 29 c9 bd c4 e7 d1 3d 30 cc c9 3d 24 e7 b1 bd
       -0.09822461 0.10249284 0.09853399 -0.08686665
0003e0 00 34 40 3d 10 78 9e 3d 70 83 3d 3c 28 34 c1 bc
       0.04692459 0.07737744 0.011566982 -0.02358444
0003f0 76 9b c6 bd 1e f1 88 3d b0 37 1b bc 64 06 f4 bd
       -0.096976206 0.066866145 -0.009473726 -0.119152814

lstm.bias_ih_l0 f4 [256]
000000 92 03 04 40 24 e5 3e 40 7b 9b 38 3f 18 f1 a1 3f
       2.062718 2.9827356 0.72112244 1.2651701
000010 ed fc ea 3f 4d 2d 0d 40 5e 63 4f 3f ae c8 a0 3f
       1.8358437 2.20589 0.81011 1.2561243
000020 8f 1f bf 3f b3 3b 1e bd 91 a0 1c 40 5d 07 56 3f
       1.4931506 -0.038631152 2.4473002 0.83604985
000030 c3 ba 1d 40 06 cd 54 bd 63 f6 35 40 22 30 6a 3f
       2.464524 -0.051953338 2.8431633 0.91479695
000040 a9 c2 4c 3f 96 b3 9b 3f 36 5a 19 40 20 e6 47 3f
       0.7998453 1.216418 2.396131 0.7808552
000050 0a f7 d9 3f 61 b6 cf be 28 52 36 40 67 bb 7a 3f
       1.7028515 -0.40568832 2.8487644 0.97942203
000060 33 b5 40 3f 26 d9 f4 3f af 99 8d 3f 86 a8 fa 3f
       0.7527649 1.9128768 1.1062526 1.9582679
000070 be 8b 0a 40 84 aa 12 40 8d 3d 1d 40 31 ac 46 3f
       2.1647792 2.2916574 2.4568818 0.77606493
000080 01 56 d6 3e 88 ae 9c 3f e6 b3 c9 3e e0 ed 47 3f
       0.4186249 1.2240763 0.39395064 0.78097343
000090 f9 a4 60 3f 80 20 9d 3f 78 35 72 3f 27 29 0a be
       0.8775173 1.2275543 0.94612837 -0.13492261
0000a0 30 21 ad 3f 4e f4 30 40 2c 6a 07 40 5f 24 1b 40
       1.3525753 2.7649112 2.1158552 2.424095
0000b0 04 fe 5e 3f a3 a8 a2 3f 47 97 3c 3f 99 0d 0c 3f
       0.8710635 1.2707714 0.7366833 0.5470825
0000c0 75 d0 e3 3f cf b8 20 40 00 92 1d 3f b8 5c 45 3f
       1.7797991 2.5112798 0.61550903 0.770946
0000d0 23 a8 93 3f af 4d 41 40 0c ed 39 40 a7 9a 21 40
       1.1535686 3.0203664 2.9050932 2.5250642
0000e0 a4 8e 37 3f ee 86 bc 3f da 63 45 40 31 75 81 3f
       0.7170203 1.4728677 3.0842195 1.0113889
0000f0 8b db 04 40 70 be 65 3f ec 64 db 3f 53 b2 28 40
       2.0758998 0.8974371 1.7140174 2.635884
000100 b0 29 97 bc ee 31 fb 3d a8 97 56 bd e0 3d ce 3c
       -0.018452495 0.12265383 -0.052390724 0.025175989
000110 3e 9a 8b bd 48 c3 d3 bd d8 29 5f 3d 30 64 9f 3d
       -0.06816529 -0.10339981 0.054483265 0.07782781
000120 e0 19 5b bc 24 9e 41 bd 46 c4 d4 3d 08 51 77 bd
       -0.013372868 -0.047269955 0.10388999 -0.06038001
000130 48 d1 6b 3d 22 16 c1 3d 76 ae 87 3d 60 74 7d 3d
       0.057572633 0.094280496 0.06625073 0.061878562
000140 68 d9 e3 3c 58 2d 90 bd c4 c8 dc 3d 30 75 a2 bc
       0.027813628 -0.07039899 0.107804805 -0.01983127
000150 70 75 40 bd d0 51 b3 3c 4e ba 89 bd 78 47 d1 bc
       -0.046986997 0.021889597 -0.06724988 -0.025546774
000160 34 8a 00 3d 4c d8 de bd 38 1f 9e 3c 28 80 68 bd
       0.0313818 -0.10881099 0.019301996 -0.056762844
000170 08 d5 e5 3d 32 67 ca 3d d8 15 ed 3c 48 30 54 3d
       0.11222273 0.09882964 0.02894108 0.051803857
000180 1c 26 95 3d 56 de f2 bd fe 89 fb 3d c8 6b 7e 3d
       0.072826594 -0.118588135 0.12282179 0.062114507
000190 f0 6f 86 bc f8 3e 90 bd cc 70 2f bd 7c bc 11 bd
       -0.016410798 -0.0704326 -0.04283218 -0.035580143
0001a0 34 8d d2 bd c0 4f 86 3b 9c 63 16 bd c4 e5 cf 3d
       -0.102808386 0.0040988624 -0.03671609 0.10151246
0001b0 84 cf 28 bd 6c d4 a6 bd 80 2e c9 3a 34 10 43 bd
       -0.041213527 -0.08145985 0.0015348941 -0.047622874
0001c0 dc ce a6 bd 88 1b c1 3d 08 fa 24 bd a4 d7 ab bd
       -0.08144924 0.09429079 -0.04027751 -0.083907396
0001d0 d4 f6 f8 bd a2 71 b0 3d e8 d3 49 bd 9c 67 3a 3d
       -0.12156454 0.08615424 -0.049274355 0.045508966
0001e0 18 e5 31 bd 32 2f f3 bd ac d0 50 bd 6c aa c7 3d
       -0.04343137 -0.11874236 -0.050980255 0.09749302
0001f0 a4 d5 1a bd 66 63 f7 bd b4 eb 00 bd 30 1c 2f 3c
       -0.0378014 -0.120795056 -0.031474784 0.010687873
000200 db c8 fe 3f 36 b3 9a bf 25 e4 d0 bf 14 b8 29 bf
       1.9905046 -1.2085941 -1.6319624 -0.66296506
000210 16 7f f0 3f c3 d6 8a bf 30 47 aa bf 78 6d 96 3f
       1.8788784 -1.084679 -1.3302975 1.1752157
000220 ff 42 a8 3e 1d 6e fe 3f a1 2e b8 3f 3d 5e a0 3f
       0.32863614 1.9877354 1.438923 1.2528759
000230 40 91 aa 3f 51 ba 16 c0 be a5 b3 bf a2 f0 a9 3f
       1.3325577 -2.3551219 -1.4034956 1.327656
000240 99 9b 2c bf 8f 83 f1 3f 1f 13 2d 3f a3 70 8c be
       -0.67424923 1.8868273 0.676073 -0.27429685
000250 af 47 fe be b5 ea f8 bf 38 d4 fe bf a9 e6 3f be
       -0.49664065 -1.9446627 -1.9908514 -0.18740334
000260 ed 92 b1 3f 52 9b e3 be cd 50 55 bf 38 72 0b c0
       1.3872963 -0.44454437 -0.8332642 -2.1788464
000270 3f e3 fd 3f 58 71 1b c0 14 6e 0e 40 cb a5 b5 bf
       1.9834975 -2.428793 2.2254686 -1.4191221
000280 35 b1 0f c0 06 9f e0 bf 78 0b 1d 3f ce 53 42 bc
       -2.2451909 -1.754853 0.61345625 -0.011860801
000290 9e 4d 9d bf e8 d0 18 c0 1b 91 be bf f3 e6 16 c0
       -1.2289312 -2.3877506 -1.4888033 -2.357846
0002a0 f4 a8 fc 3f 19 10 89 3f ba cf 39 c0 a1 3a 0c 40
       1.973906 1.0708038 -2.9033036 2.1910784
0002b0 03 65 94 bf 8d e1 23 bf 75 6a 4e 3f b7 eb 79 3f
       -1.1593326 -0.6401604 0.8063119 0.976253
0002c0 63 e1 11 40 8b 8b 97 3f b8 34 af 3f 61 c6 11 be
       2.2793815 1.183946 1.3687963 -0.14235832
0002d0 12 9d 2f bf d8 89 df bf cb 2a b1 be 92 99 98 3f
       -0.68599045 -1.7463942 -0.3460296 1.1921866
0002e0 21 64 a6 3f 4e 51 dc 3e 87 89 98 bf 4b 79 e8 3f
       1.2999307 0.4303078 -1.191697 1.8162016
0002f0 59 a5 11 c0 a5 27 cb 3e 2c 2e f4 be 1f 0e b9 3f
       -2.275717 0.39678684 -0.47691476 1.4457434
000300 2f 4f d5 3f 03 c7 ef 3f f6 9d 27 3f 05 23 44 3f
       1.666479 1.8732609 0.65475404 0.76615936
000310 fb 2e 85 3f a0 41 0c 40 fa 30 33 3f 2b 1c ed 3e
       1.0404962 2.1915054 0.6999661 0.46310553
000320 d3 97 02 40 9d 4e 03 3f 57 66 34 40 1a 01 72 3f
       2.0405166 0.5129183 2.8187463 0.9453293
000330 62 19 f2 3f 5b 4e db 3e cf 0b 15 40 2c 14 1e 3f
       1.8913996 0.42833218 2.3288457 0.6174953
000340 b9 f0 33 3f 98 4f 08 3f 94 95 1c 40 91 9a 9a 3d
       0.7028919 0.5324645 2.4466295 0.075490125
000350 97 49 af 3f d7 1a 0b bf a7 f0 ca 3f 9e 92 69 3e
       1.3694333 -0.5433783 1.5854691 0.22809836
000360 fc 24 d9 3d c8 0b e3 3f 2c 43 94 3f 15 f3 cc 3f
       0.10602757 1.773797 1.1582999 1.6011683
000370 ad 3b c6 3f 2e 9a c3 3f 93 de c7 3f 63 c5 34 3f
       1.5486962 1.5281427 1.5614799 0.7061369
000380 b5 2d 05 3f 35 8d 5b 3f 8a 8b 8a 3f ae 5d 85 3e
       0.5202287 0.8576234 1.0823834 0.26048034
000390 cb bd bf 3e db 51 1e 40 94 4e 68 3f 13 2c 43 be
       0.37449488 2.473746 0.907449 -0.19059782
0003a0 d7 e6 8a 3f 5a 98 e8 3f 98 cc db 3f a6 3a d9 3f
       1.0851697 1.8171494 1.7171812 1.6971023
0003b0 7e 7c 4a 3f f6 f2 91 3f 89 2b 95 3f 6b e1 a3 3f
       0.7909621 1.1402271 1.1653911 1.2803167
0003c0 ef 42 2e 3f d3 b9 1c 40 ea ef 45 3f 9c e8 b0 3e
       0.6807088 2.4488418 0.77319205 0.34552467
0003d0 1d 1a 8c 3f d1 07 1c 40 fb c0 3d 40 58 d9 1c 40
       1.0945469 2.437977 2.9649036 2.4507656
0003e0 44 27 a2 3e 59 af 86 3f 7e 10 2a 40 2a 26 6c 3f
       0.31670582 1.0522262 2.6572566 0.92245734
0003f0 1f 8d b3 3f 29 77 5f 3f c3 0e 02 40 d3 61 26 40
       1.4027442 0.872912 2.032151 2.5997207

lstm.bias_hh_l0 f4 [256]
000000 a4 cb 0d 40 a2 73 43 40 5f 54 39 3f 82 48 b3 3f
       2.2155542 3.0539327 0.72394365 1.4006503
000010 9a ab e2 3f 2b 16 10 40 98 00 2e 3f 3e 12 95 3f
       1.7708619 2.251353 0.67969656 1.1646192
000020 23 36 d1 3f a9 95 11 3e fc 5d 18 40 3a 6f 50 3f
       1.6344646 0.14217247 2.3807364 0.8141972
000030 17 ae 1d 40 20 21 02 be 11 c4 2d 40 ce 18 4c 3f
       2.4637506 -0.12707949 2.715092 0.7972535
000040 23 eb 65 3f 6e 0c aa 3f 5c e8 13 40 33 c5 44 3f
       0.89811915 1.3285043 2.311057 0.768634
000050 a4 55 d9 3f 7b e4 ab be c6 d1 3f 40 d7 80 85 3f
       1.697926 -0.33572754 2.9971786 1.0429944
000060 a4 d2 26 3f 58 f3 ee 3f 07 41 86 3f 0e 0c 04 40
       0.6516516 1.8668013 1.0488595 2.0632358
000070 aa be 0d 40 2d 8e 18 40 b4 88 25 40 9b 35 23 3f
       2.2147622 2.3836777 2.5864687 0.6375367
000080 af f3 da 3e b8 3b 8f 3f 22 d3 c6 3e 3e 81 4a 3f
       0.4276404 1.11901 0.38832957 0.7910346
000090 8b e2 5b 3f c5 18 88 3f 9e 2f 76 3f 5c 47 0f be
       0.8589255 1.0632559 0.9616641 -0.13992065
0000a0 f5 e5 bc 3f 25 af 2d 40 4a 93 0a 40 41 6f 16 40
       1.4757677 2.713815 2.1652398 2.3505404
0000b0 99 53 3a 3f 48 d2 82 3f a0 ef 38 3f e1 21 0c 3f
       0.7278381 1.0220423 0.7224064 0.54739195
0000c0 d9 1a ed 3f 85 9b 20 40 d4 bc 0d 3f 01 60 4c 3f
       1.8523818 2.5094922 0.55366254 0.7983399
0000d0 0d 99 93 3f ec 9a 43 40 b5 0d 32 40 91 53 21 40
       1.1531082 3.0563307 2.7820866 2.5207255
0000e0 52 db 25 3f a9 11 ac 3f 1e b2 43 40 fb 94 87 3f
       0.6478778 1.344289 3.0577464 1.059234
0000f0 c0 7e fb 3f 05 47 6d 3f d2 ef f0 3f 21 71 28 40
       1.9648056 0.9268649 1.8823187 2.6319048
000100 00 91 a9 bc 50 60 8c 3c 1c 7b 56 bd 62 ef ea bd
       -0.020699024 0.01713577 -0.0523635 -0.1147144
000110 02 82 bc 3d ca d7 d6 3d 40 cb c4 3d c2 90 8c bd
       0.092044845 0.10490377 0.09609079 -0.06863548
000120 fe f8 f8 bd 00 c4 7a 3a d0 c1 1f 3c 2c ea a9 bd
       -0.121568665 0.00095659494 0.009750798 -0.08296618
000130 20 9c 9b bd d2 25 b1 bd e2 94 e3 3d d0 5c 90 3d
       -0.07598138 -0.08649792 0.111123815 0.070489526
000140 74 f4 45 3d 48 23 ac 3c 60 24 d7 3d 80 ef 2f bd
       0.04832883 0.021012917 0.10504985 -0.042953014
000150 20 a1 94 3b 16 11 e4 bd 80 9f 57 bb a0 77 3d 3d
       0.004535809 -0.111360714 -0.0032901466 0.04625666
000160 5c d0 2a 3d fc a3 b1 bd 1e db b8 bd c2 65 90 3d
       0.041702613 -0.08673856 -0.09026168 0.07050659
000170 fa 22 9c bd 90 c1 fa bc 48 fd c3 bd dc 18 f8 bd
       -0.07623859 -0.030609876 -0.09569794 -0.121141165
000180 fc 40 46 bd 40 9b 86 3d d2 dc d3 bd 76 03 b4 3d
       -0.048401818 0.0657258 -0.103448525 0.087897226
000190 06 c6 af 3d 28 13 5f bd 60 3e 60 3d 00 73 c4 bd
       0.08582692 -0.05446163 0.054746985 -0.09592247
0001a0 b8 d4 99 bc 3c 3d 0d 3d 90 96 bf bc 9e e4 e4 3d
       -0.01877819 0.034482226 -0.023387223 0.11176418
0001b0 34 1f 09 bd 58 1e 5b bd a8 f5 e4 bc 70 01 8b 3c
       -0.033477023 -0.053495735 -0.02794917 0.016968459
0001c0 50 0e f7 bd 10 42 f7 bd 40 ad 96 3d 3e 70 d4 bd
       -0.12063277 -0.12073147 0.073572636 -0.10372971
0001d0 c0 ae 44 3c d0 b4 b1 3c ec 15 3f bd e8 63 ea bd
       0.012004554 0.021692663 -0.046651766 -0.11444837
0001e0 30 78 79 bc 6c a8 74 bd 00 5f 67 bc 70 60 bc bd
       -0.015226409 -0.059730932 -0.014121771 -0.091980815
0001f0 d6 81 bc bd 18 cd cd 3c 60 d8 9a 3c 34 d8 9a bd
       -0.09204452 0.02512221 0.018902004 -0.07560769
000200 65 53 eb 3f c0 4a 9c bf c7 ae db bf 40 4d 30 bf
       1.8384825 -1.2210312 -1.7162713 -0.68867874
000210 ab 3a f9 3f 92 86 a5 bf b6 95 b2 bf 52 38 88 3f
       1.9471029 -1.2931693 -1.3951938 1.0642188
000220 70 98 b6 3e a9 f7 e1 3f e8 6f c0 3f 7c 49 ab 3f
       0.35663176 1.7653705 1.5034151 1.3381801
000230 38 54 a6 3f df 2f 19 c0 18 ef c1 bf b2 95 bf 3f
       1.2994452 -2.3935468 -1.5151091 1.4967558
000240 30 35 53 bf 5f 25 d5 3f b7 3c 2b 3f c7 1d 9e be
       -0.8250303 1.665203 0.6688952 -0.30882093
000250 7f 7f 24 bf 4c a1 00 c0 d1 08 03 c0 d9 b3 68 be
       -0.64257044 -2.0098448 -2.047413 -0.22724856
000260 0a fe 9c 3f f2 c3 18 bf 89 f5 59 bf d0 d7 07 c0
       1.2265027 -0.5967399 -0.8514028 -2.1225471
000270 64 bd 02 40 63 55 15 c0 1b 4f 0d 40 2a 82 b0 bf
       2.0428095 -2.3333366 2.2079532 -1.3789723
000280 12 48 1b c0 68 2c e2 bf 75 99 21 3f c5 3b 51 be
       -2.4262738 -1.7669802 0.6312478 -0.20432957
000290 7a ab b3 bf 5f 88 1c c0 3c dc a3 bf e4 10 1c c0
       -1.4036705 -2.4458234 -1.2801585 -2.438531
0002a0 5e 30 ef 3f 88 e5 74 3f 3c ea 2b c0 7a e0 19 40
       1.8686635 0.95662737 -2.6861715 2.404326
0002b0 71 c3 8e bf 24 99 dc be 35 39 58 3f eb f7 8d 3f
       -1.1153394 -0.43085587 0.8446229 1.1091284
0002c0 e5 b6 04 40 d7 e8 9e 3f 8f f4 9c 3f e2 e1 df bd
       2.073663 1.2414807 1.2262133 -0.109317556
0002d0 4e a3 43 bf bf 39 e3 bf 61 aa 0c be 56 0f 89 3f
       -0.7642106 -1.7751998 -0.1373687 1.0707805
0002e0 a5 f4 a5 3f 63 c7 eb 3e 53 48 9b bf 6c 40 d6 3f
       1.2965285 0.46050557 -1.2131447 1.673841
0002f0 fa 3e 17 c0 87 a5 12 3f e4 15 02 bf ed 22 a6 3f
       -2.3632188 0.57283825 -0.5081465 1.2979409
000300 7b 0a cf 3f ba 66 06 40 d6 f2 2d 3f f8 6c 6e 3f
       1.6175073 2.10002 0.67948663 0.93135023
000310 4e 7b 99 3f d6 19 0d 40 a9 39 46 3f ac 26 f5 3e
       1.1990755 2.204702 0.7743173 0.47881067
000320 3e 60 03 40 a0 5e d5 3e 46 06 32 40 89 ed 80 3f
       2.0527492 0.41673756 2.781633 1.007249
000330 cb 60 01 40 b1 d6 e5 3e 13 c2 1c 40 00 90 23 3f
       2.0215328 0.4489036 2.4493454 0.638916
000340 d4 99 42 3f 2a 48 02 3f e2 35 1f 40 36 49 14 3e
       0.76015973 0.50891364 2.4876637 0.14481053
000350 78 63 ab 3f 32 7a 26 bf 6d 45 d0 3f c1 35 39 3e
       1.338973 -0.65030205 1.6271187 0.18086912
000360 be 46 08 3e 77 5e fa 3f 80 07 91 3f ed 1d d1 3f
       0.13308236 1.9560078 1.1330414 1.6337258
000370 a0 54 d3 3f a2 a3 b4 3f f3 97 c7 3f f3 e1 34 3f
       1.65102 1.4112437 1.5593246 0.7065727
000380 2c f6 07 3f 89 3b 48 3f f5 56 86 3f f5 98 d9 3e
       0.53110003 0.78215843 1.0495287 0.4249951
000390 7c 28 8d 3e 46 84 18 40 79 9a 37 3f 73 32 8a be
       0.2756995 2.3830733 0.7172008 -0.26991615
0003a0 68 aa 91 3f 9e 87 f8 3f 9e 20 ca 3f 80 ab e2 3f
       1.1380129 1.9416387 1.5791204 1.7708588
0003b0 30 e3 58 3f ad f1 94 3f eb 15 a3 3f 13 38 95 3f
       0.8472166 1.1636254 1.2741064 1.1657737
0003c0 f4 b4 2c 3f 89 47 1e 40 d8 3f 49 3f 87 4f b7 3e
       0.6746361 2.4731162 0.7861304 0.35802862
0003d0 c7 40 90 3f bd 89 13 40 7c 1f 33 40 2e 10 27 40
       1.1269768 2.3052819 2.7987967 2.6103625
0003e0 94 cf ee 3e 2b c5 97 3f 1e d6 2a 40 84 1e 8b 3f
       0.46642745 1.1857046 2.6693187 1.0868688
0003f0 21 ca c6 3f ae 44 84 3f 69 23 fd 3f 8a 3b 32 40
       1.5530435 1.0333459 1.9776431 2.784884

fc.weight f4 [1, 64]
000000 49 d9 11 40 c4 95 3a c0 5c b0 f6 be 1e 03 17 40
       2.278887 -2.915391 -0.48181427 2.3595653
000010 82 b0 ac 3f 0a c8 3f c0 02 1b 1f 3d 65 3d bc 3f
       1.3491366 -2.9965844 0.038844116 1.4706236
000020 c2 a9 65 c0 86 dc 3e 40 a9 44 5b 40 23 0d c1 bd
       -3.5884862 2.9822097 3.4260657 -0.09426334
000030 b5 fa 4e 40 0e dd 84 c0 99 fa 5d c0 5d b9 09 3e
       3.234052 -4.151984 -3.4684203 0.13449617
000040 6e bd 04 c0 99 17 09 40 18 cf 6e 40 8b 83 09 40
       -2.0740619 2.1420653 3.73139 2.1486537
000050 12 ad 37 40 3f 98 48 c0 e1 02 24 c0 1d 53 02 40
       2.8699384 -3.1342924 -2.5626757 2.0363228
000060 68 f9 ea 3e 02 3e 63 c0 7e 45 02 c0 b0 ad 11 c0
       0.45893407 -3.5506597 -2.0354915 -2.276226
000070 a3 38 2e 40 cb a3 15 c0 53 1c 41 40 61 aa bb bd
       2.7222068 -2.3381221 3.0173538 -0.091633566
000080 2a 5e 53 c0 32 b2 af bf 3d 2c 54 c0 b8 3a 02 c0
       -3.3026223 -1.3726256 -3.3152 -2.034834
000090 e7 c4 45 be e5 87 72 c0 bd ec 69 be 99 bc 24 c0
       -0.19313394 -3.7895443 -0.22844215 -2.574011
0000a0 7e 44 90 3f 96 9f 2d 40 60 4d 1b c0 bf ed 11 40
       1.1270902 2.7128654 -2.4265976 2.2801359
0000b0 1e 94 32 3d 4e c0 2b 40 74 24 6a 40 e9 12 43 40
       0.043598287 2.6836123 3.658475 3.0480292
0000c0 99 3a 14 40 f5 62 4c 40 b8 6c 04 be 2b 05 01 40
       2.3160765 3.1935399 -0.12932098 2.0159404
0000d0 fe da fe bf 46 11 59 c0 f6 89 87 40 80 04 73 40
       -1.9910581 -3.3916793 4.235591 3.7971497
0000e0 5b d9 7b 3e 28 ac 12 c0 dd 78 52 c0 cf e1 62 40
       0.24594633 -2.2917576 -3.288627 3.5450323
0000f0 51 25 da bf fe 22 01 40 49 60 72 c0 2d 0e 4c 40
       -1.7042638 2.0177608 -3.7871268 3.1883652
