backend/models/lstm_run1.pth (torch, 77660 bytes, 5 tensors)

lstm.weight_ih_l0 f4 [256, 7]
-0.17695494 0.34779313 0.54713345 -0.22900127 0.06403046 -0.11581881 -0.1165917 0.17605819
-0.89568007 -1.0974985 0.13063301 -0.7006981 0.12991755 -0.11074292 0.10705188 -0.76506567
-1.0383589 0.3465164 -0.68321824 0.0331942 0.074179254 -0.19986024 0.49758604 0.5516055
-0.06417129 0.2417593 -0.10021635 0.052680984 0.16376169 -0.83440065 -1.1257805 0.2685722
-0.7830718 0.103846006 -0.14138056 0.14786236 -0.85845685 -1.0373827 0.16645785 -0.6940317
0.11027684 -0.103071935 0.22217739 -0.7885439 -0.96209013 0.24499966 -0.78611934 -0.005605208
0.1344246 0.20250745 -0.86492723 -0.9791413 0.16757533 -0.7310792 0.1680289 -0.058857225
-0.09911787 0.62307703 0.3822481 -0.07433405 0.38892794 -0.30507547 -0.2562847 0.27792138
-0.87551576 -0.9455739 0.097439736 -0.739408 0.03131042 -0.20856486 -0.08513203 0.645256
0.47250974 -0.14440235 0.43434796 -0.11434798 0.09135712 0.17581503 -0.75299 -1.0364718
0.21923728 -0.69553256 0.08330045 0.023408368 0.18417491 -0.80391043 -1.0034648 0.15124078
-0.7093098 0.105111495 -0.087455854 0.19148558 -0.77404135 -0.9771271 0.09911571 -0.69890994
0.16647123 -0.056926504 -0.26386493 0.35724935 0.6018434 -0.08420573 0.23264875 -0.05591256
-0.5257087 0.23347564 -0.7679411 -0.9587619 0.43235287 -0.88660157 -0.022538824 0.17082933
-0.23984225 0.53138745 0.53724986 -0.042593177 0.19148183 -0.07620168 0.22015736 0.011054424
0.5325133 0.5517828 -0.22878942 0.2991432 -0.116086476 -0.010259554 0.68925583 -0.05280414
1.02513 -0.14952844 -0.012906469 -0.64164007 0.10881569 -0.16995686 0.34643683 0.6387694
-0.10144 0.17315206 -0.09085805 -0.18259129 -0.2065136 0.34827843 0.63900745 -0.10932071
0.23185198 -0.096386254 -0.32834062 0.11125862 -0.7913185 -0.9820985 0.30220243 -0.8162402
0.019402685 0.08160689 0.23139216 -0.7950926 -1.0688981 0.20606954 -0.8523996 0.11271446
-0.09636977 -0.2563103 0.3633931 0.70128137 -0.10674681 0.370924 -0.090194695 -0.14919636
0.16411293 -0.79895765 -0.9462725 0.1218609 -0.6773459 0.16287684 -0.11115011 0.13510585
0.5483035 0.5615812 -0.114206925 0.35349894 -0.55775696 -0.1579159 -0.27510226 0.6303031
0.43765685 -0.031640165 0.26183763 -0.07935605 0.30320075 -0.23856644 0.19455208 0.74920434
-0.35958394 0.1848506 0.038374647 -0.5008145 -0.2491434 0.23876685 0.72163326 -0.18821609
0.021052437 -0.15795675 -0.10833921 -0.18762557 0.3515274 0.6605594 -0.1119345 0.24348743
-0.088701434 -0.22389987 -0.13622381 0.3918935 0.4410664 0.01565276 0.11288573 -0.15120885
-0.08702451 0.30379912 -0.83753353 -0.9984158 0.67418444 -1.0533355 -0.035478514 0.10349476
0.0856413 -0.7183205 -1.106488 0.033950135 -0.36438265 0.16060476 -0.16318008 0.09064181
-0.75322205 -0.9596316 0.3075903 -0.6804068 0.027143316 0.0999767 0.14032355 -0.95954657
-1.3345604 -0.05675766 0.47691047 -0.08080009 -0.28977448 -0.18283683 0.47034 0.5760274
-0.06327703 0.20558491 -0.090421274 0.1352596 0.17223886 -0.8205178 -1.054533 0.12331138
00000000: ad33 35be f111 b23e f010 0c3f 4f7f 6abe
00000010: 6722 833d 6a32 edbd a1c7 eebd 9948 343e
00000020: 4a4b 65bf d57a 8cbf a9c4 053e f360 33bf
00000030: 1b09 053e 2fcd e2bd 043e db3d 58db 43bf
00000040: f2e8 84bf 996a b13e 64e7 2ebf a4f6 073d
00000050: 4beb 973d 2aa8 4cbe 99c3 fe3e 0536 0d3f
00000060: 3d6c 83bd c08f 773e 3b3e cdbd 04c8 573d
00000070: 25b1 273e 489b 55bf 9319 90bf 4c82 893e
00000080: 6577 48bf 37ad d43d 11c6 10be 3b69 173e
00000090: d4c3 5bbf f5c8 84bf ed73 2a3e 10ac 31bf
000000a0: d3d8 e13d 6117 d3bd 7882 633e 03de 49bf
000000b0: 8a4b 76bf 31e1 7a3e 1e3f 49bf e5ab b7bb
000000c0: 9aa6 093e 1d5e 4f3e df6b 5dbf 01a9 7abf
000000d0: de98 2b3e 0228 3bbf c50f 2c3e 4614 71bd
000000e0: 4ffe cabd fa81 1f3f 06b6 c33e 733c 98bd
000000f0: 9021 c73e da32 9cbe c037 83be b64b 8e3e
00000100: cd21 60bf 2211 72bf 7c8e c73d d849 3dbf
00000110: 5b3f 003d 0792 55be b459 aebd 7f2f 253f
00000120: ccec f13e 36de 13be db62 de3e 462f eabd
00000130: 7119 bb3d db08 343e f4c3 40bf 1cab 84bf
00000140: bd7f 603e 6c0e 32bf 6d99 aa3d e8c2 bf3c
00000150: 5998 3c3e 13cd 4dbf 8971 80bf ddde 1a3e
00000160: 5495 35bf b244 d73d 0e1c b3bd cc14 443e
00000170: 9327 46bf 0025 7abf 2dfd ca3d c3eb 32bf
00000180: 6f77 2a3e c42b 69bd 4e19 87be 63e9 b63e
00000190: 6912 1a3f 0e74 acbd 793b 6e3e 9204 65bd
000001a0: d894 06bf 3d14 6f3e ca97 44bf 6b71 75bf
000001b0: 5b5d dd3e 52f8 62bf 57a3 b8bc e2ed 2e3e
000001c0: 3599 75be 0209 083f 3589 093f 2f76 2ebd
000001d0: d013 443e a00f 9cbd ee70 613e 9d1d 353c
000001e0: cb52 083f a341 0d3f c647 6abe 4c29 993e
000001f0: bfbe edbd b017 28bc 1273 303f 2749 58bd
00000200: 7637 833f fc1d 19be a875 53bc 8642 24bf
00000210: c3da de3d 2c09 2ebe 2b60 b13e 6486 233f
00000220: c6bf cfbd c64e 313e c913 babd 36f9 3abe
00000230: 4d78 53be 8d51 b23e fe95 233f 89e3 dfbd
00000240: 9b6a 6d3e 2866 c5bd 431c a8be 8fdb e33d
00000250: d993 4abf cf6a 7bbf 47ba 9a3e 1ef5 50bf
00000260: 61f2 9e3c 8321 a73d 11f2 6c3e 308b 4bbf
00000270: a7d1 88bf e503 533e dc36 5abf d7d6 e63d
00000280: 845d c5bd 1b3b 83be a90e ba3e 2d87 333f
00000290: 129e dabd c0e9 bd3e ffb7 b8bd eec6 18be
000002a0: 380d 283e 7d88 4cbf ea3e 72bf 3592 f93d
000002b0: 8a66 2dbf 30c9 263e aba2 e3bd 3059 0a3e
000002c0: 9e5d 0c3f c9c3 0f3f 52e5 e9bd d0fd b43e
000002d0: 29c9 0ebf b5b4 21be 34da 8cbe 8b5b 213f
000002e0: 8f14 e03e 1e99 01bd 950f 863e 6d85 a2bd
000002f0: 213d 9b3e c34a 74be a938 473e dbcb 3f3f
00000300: 631b b8be 7a49 3d3e bc2e 1d3d 6135 00bf
00000310: 731f 7fbe 4c7f 743e f5bc 383f b8bb 40be
00000320: 2976 ac3c 6abf 21be f3e0 ddbd eb20 40be
00000330: 66fb b33e 6c1a 293f ea3d e5bd c554 793e
00000340: 19a9 b5bd 0246 65be 417e 0bbe 44a6 c83e
00000350: 75d3 e13e 383a 803c a230 e73d 7ed6 1abe
00000360: e839 b2bd 8f8b 9b3e 9968 56bf 2e98 7fbf
00000370: 5a97 2c3f b3d3 86bf eb51 11bd 10f5 d33d
00000380: b564 af3d dae3 37bf 66a1 8dbf 4c0f 0b3d
00000390: 5d90 babe 9375 243e ae18 27be 6aa2 b93d
000003a0: 29d3 40bf 6baa 75bf 7a7c 9d3e 242f 2ebf
000003b0: a95b de3c 96c0 cc3d fab0 0f3e d8a4 75bf
000003c0: e0d2 aabf b87a 68bd 9c2d f43e 857a a5bd
000003d0: 525d 94be 9439 3bbe 68d0 f03e 8876 133f
000003e0: 6397 81bd da84 523e ca2e b9bd 7e81 0a3e
000003f0: 625f 303e 740d 52bf f0fa 86bf ad8a fc3d

lstm.weight_hh_l0 f4 [256, 64]
-0.09876183 -0.09683837 -0.019602194 -0.023258373 0.08168316 0.1069061 -0.094120264 -0.10333873
-0.09547223 0.121608004 -0.1159842 -0.055975303 0.08237013 -0.055786952 0.12471038 0.028747827
0.029611379 0.0023052543 -0.07602996 0.073989496 0.062914416 -0.046467215 0.044749945 0.04626976
0.051448032 -0.06640136 -0.03954172 0.0803763 0.1087209 0.038103923 0.0477826 -0.054093614
0.09582196 -0.10444884 -0.0972444 0.036370948 0.09009965 -0.103865206 -0.0013557523 0.124467894
-0.10673563 0.03508489 0.072137505 0.06289792 -0.09345022 0.031446755 -3.0055642e-05 -0.038590193
0.05979082 0.10811812 -0.110827014 -0.092860445 0.083515376 -0.012147754 -0.091236115 0.10903221
0.046547353 0.058288947 0.026981637 0.011282876 0.05911699 -0.039541334 -0.07711713 0.095505804
-0.09099071 -0.08882849 -0.1057208 -0.07995114 -0.02404438 0.014831573 0.0649631 -0.09867196
-0.09871979 -0.041389495 0.022632435 -0.049293697 -0.000516966 -0.03990504 0.038838252 -0.10205664
0.06353903 0.04702905 -0.046881407 -0.09545012 -0.09659262 -0.0961442 -0.053225875 -0.055848747
0.11217421 0.038266957 -0.020878538 -0.031352833 -0.113058925 0.040502578 -0.11848751 0.03471838
-0.08516966 -0.11311154 -0.05392535 -0.035548583 0.083411455 -0.057276815 0.07287243 -0.05483724
-0.030609503 -0.08318603 0.027544186 0.09266536 -0.058338672 0.061316445 0.0913478 -0.10803957
0.122909755 -0.02214007 -0.08223179 -0.07527919 0.08359042 0.047684267 0.07634123 -0.107474715
-0.0093624145 -0.08581984 -0.06344037 -0.11620228 -0.066983595 0.016934365 -0.058151275 0.015328392
-0.114905894 0.115237385 -0.115654215 -0.048981845 -0.068447754 0.08519362 -0.014931649 0.05010909
0.026289016 0.07128243 -0.106352 -0.08180237 0.058352128 0.07232082 -0.11727114 -0.026853487
-0.035961643 -0.07018678 0.06680326 0.029197171 -0.07113716 0.05893132 -0.009468943 0.121623635
-0.020674884 -0.036481783 -0.034585238 -0.1219949 0.08228426 -0.041938975 0.11731282 0.03209977
0.023243353 -0.11095889 0.056829497 0.1084225 -0.06277914 0.03502263 0.085250646 0.09250857
0.035975993 -0.015038982 -0.076051965 -0.09679085 0.120877534 0.02868937 0.122965604 -0.08562702
-0.03406459 -0.122317344 -0.11485799 -0.09804237 0.031575337 -0.07549 0.05975093 -0.11620869
-0.12294291 0.0059672743 -0.011464208 -0.09815195 -0.02558589 -0.0847425 -0.11307028 -0.05194749
0.010041416 0.0880958 0.0037268996 0.020066679 0.07968429 -0.116822615 -0.11330891 0.060732156
0.085008994 0.07476084 -0.063904 -0.0039765984 0.014151886 0.05082397 -0.093342945 -0.00080014765
-0.034093663 -0.0333416 0.072602734 0.0731996 0.0024913996 0.013563454 0.09740883 0.06894982
-0.046379894 0.11378278 -0.12216818 0.053004175 0.028398976 -0.007816151 -0.1052877 0.0020835549
-0.12452036 0.11724368 -0.06707963 0.09255165 0.07240738 0.096068695 0.0381878 0.004735112
0.064046666 -0.024151504 -0.0667292 -0.023145929 -0.05450198 -0.025734305 0.06356436 -0.016862437
0.022624105 -0.0008840114 -0.10134746 0.12072125 -0.09822461 0.10249284 0.09853399 -0.08686665
0.04692459 0.07737744 0.011566982 -0.02358444 -0.096976206 0.066866145 -0.009473726 -0.119152814
00000000: a443 cabd 3253 c6bd c894 a0bc 5888 bebc
00000010: 8049 a73d 96f1 da3d 20c2 c0bd 42a3 d3bd
00000020: f286 c3bd 9e0d f93d 2089 edbd 5c46 65bd
00000030: acb1 a83d dc80 64bd 2868 ff3d 9080 eb3c
00000040: 9093 f23c c013 173b 98b5 9bbd ce87 973d
00000050: 46d9 803d 6854 3ebd b84b 373d 5c85 3d3d
00000060: 2cbb 523d 70fd 87bd 80f6 21bd 549c a43d
00000070: 10a9 de3d dc12 1c3d b0b7 433d 4491 5dbd
00000080: 4e3e c43d 46e9 d5bd 1228 c7bd b4f9 143d
00000090: 2a86 b83d 48b7 d4bd 80b3 b1ba 06e9 fe3d
000000a0: 3698 dabd 2cb5 0f3d d4bc 933d a0d0 803d
000000b0: d462 bfbd 50ce 003d 0020 fcb7 c010 1ebd
000000c0: 38e7 743d 086d dd3d 46f9 e2bd 9e2d bebd
000000d0: 1c0a ab3d 6007 47bc 00da babd 484c df3d
000000e0: 70a8 3e3d 64c0 6e3d 9808 dd3c d0db 383c
000000f0: a824 723d 18f6 21bd 96ef 9dbd 8c98 c33d
00000100: 5659 babd b6eb b5bd 2684 d8bd 6cbd a3bd
00000110: b8f8 c4bc 2000 733c 600b 853d 8614 cabd
00000120: 9a2d cabd 0888 29bd a867 b93c 30e8 49bd
00000130: 0085 07ba 7873 23bd dc14 1f3d 1203 d1bd
00000140: c020 823d 88a1 403d b806 40bd 5a7b c3bd
00000150: 5ad2 c5bd 40e7 c4bd 6003 5abd a8c1 64bd
00000160: 98bb e53d d0bd 1c3d 7809 abbc d46b 00bd
00000170: 708b e7bd 08e6 253d 94a9 f2bd dc34 0e3d
00000180: 6e6d aebd 06a7 e7bd d4e0 5cbd 649b 11bd
00000190: a0d3 aa3d 189b 6abd 243e 953d 049d 60bd
000001a0: c8c0 fabc 705d aabd 58a4 e13c 56c7 bd3d
000001b0: 88f4 6ebd f426 7b3d 8e14 bb3d da43 ddbd
000001c0: 1cb8 fb3d 185f b5bc 2469 a8bd fa2b 9abd
000001d0: 7431 ab3d 9450 433d ca58 9c3d b41b dcbd
000001e0: d064 19bc 50c2 afbd 06ed 81bd 76fb edbd
000001f0: b22e 89bd f0b9 8a3c 0830 6ebd f023 7b3c
00000200: c853 ebbd 9401 ec3d 1edc ecbd 30a1 48bd
00000210: 562e 8cbd fe79 ae3d e0a3 74bc 303f 4d3d
00000220: 105c d73c 86fc 913d 14cf d9bd 0088 a7bd
00000230: a402 6f3d f01c 943d da2b f0bd d8fb dbbc
00000240: 844c 13bd 16be 8fbd 26d0 883d e82e ef3c
00000250: 5cb0 91bd f861 713d a023 1bbc d015 f93d
00000260: 605e a9bc ec6d 15bd 40a9 0dbd 76d8 f9bd
00000270: a684 a83d 34c8 2bbd b441 f03d 0c7b 033d
00000280: d868 be3c 6a3e e3bd 0cc6 683d 9e0c de3d
00000290: 5a92 80bd e473 0f3d e497 ae3d 2275 bd3d
000002a0: 905b 133d 1066 76bc 22c1 9bbd 483a c6bd
000002b0: a48e f73d f805 eb3c 64d5 fb3d 385d afbd
000002c0: 5087 0bbd 8481 fabd aa3a ebbd 70ca c8bd
000002d0: 2455 013d 809a 9abd 64bd 743d d2fe edbd
000002e0: 7ec9 fbbd 2089 c33b 60d4 3bbc e403 c9bd
000002f0: 8099 d1bc 7a8d adbd 6491 e7bd e4c6 54bd
00000300: c084 243c 926b b43d 003f 743b e062 a43c
00000310: 8431 a33d b240 efbd 800e e8bd 48c2 783d
00000320: 3219 ae3d 361c 993d 1ae0 82bd 204e 82bb
00000330: 50dd 673c cc2c 503d 962a bfbd 00c1 51ba
00000340: cca5 0bbd 3491 08bd beb0 943d ace9 953d
00000350: c046 233b 4039 5e3c 487e c73d 9035 8d3d
00000360: d8f8 3dbd f206 e93d 5033 fabd e81a 593d
00000370: f8a4 e83c 500f 00bc 14a1 d7bd 408c 083b
00000380: 8804 ffbd 741d f03d 0c61 89bd b88b bd3d
00000390: 524a 943d aabf c43d d06a 1c3d 0029 9b3b
000003a0: e62a 833d 60d9 c5bc 52a9 88bd 889c bdbc
000003b0: 783d 5fbd c0d0 d2bc 082e 823d 1823 8abc
000003c0: 3056 b93c 00bd 67ba 428f cfbd b43c f73d
000003d0: fc29 c9bd c4e7 d13d 30cc c93d 24e7 b1bd
000003e0: 0034 403d 1078 9e3d 7083 3d3c 2834 c1bc
000003f0: 769b c6bd 1ef1 883d b037 1bbc 6406 f4bd

lstm.bias_ih_l0 f4 [256]
1.1764225 1.1450343 1.0130404 1.0908458 1.1339568 1.0033519 1.1131107 1.1877246
1.192927 1.0502983 1.1909515 1.149229 1.172548 1.0928682 1.2802417 1.1577842
1.2057706 1.1057117 1.3666196 1.2259005 1.1396297 1.039461 1.0618031 1.2292435
1.1615049 1.2163812 1.219994 1.1536827 1.2183589 1.1409574 1.2546879 1.100991
1.1301693 1.1323472 0.9795057 1.2950788 1.235396 1.2195939 1.2082167 0.981809
0.9972536 1.1543896 1.2825297 1.319292 1.1484278 1.3580598 1.1531626 1.1047692
1.1353825 1.2933073 1.0602436 1.2108103 1.3155917 1.0249907 1.1221354 1.000387
1.074635 1.2407053 1.2174039 1.195221 1.1254103 1.2106107 1.1104485 1.2937524
-0.018452495 0.12265383 -0.052390724 0.025175989 -0.06816529 -0.10339981 0.054483265 0.07782781
-0.013372868 -0.047269955 0.10388999 -0.06038001 0.057572633 0.094280496 0.06625073 0.061878562
0.027813628 -0.07039899 0.107804805 -0.01983127 -0.046986997 0.021889597 -0.06724988 -0.025546774
0.0313818 -0.10881099 0.019301996 -0.056762844 0.11222273 0.09882964 0.02894108 0.051803857
0.072826594 -0.118588135 0.12282179 0.062114507 -0.016410798 -0.0704326 -0.04283218 -0.035580143
-0.102808386 0.0040988624 -0.03671609 0.10151246 -0.041213527 -0.08145985 0.0015348941 -0.047622874
-0.08144924 0.09429079 -0.04027751 -0.083907396 -0.12156454 0.08615424 -0.049274355 0.045508966
-0.04343137 -0.11874236 -0.050980255 0.09749302 -0.0378014 -0.120795056 -0.031474784 0.010687873
1.0518116 -0.87591255 -0.9513393 0.94723344 0.8409198 -0.7048074 -0.89572227 0.90746653
-0.98734653 0.9301135 0.940091 0.82203645 0.8280846 -0.8982888 -0.9067735 0.8585185
-0.82524806 1.0044042 1.004068 0.96610713 0.9970898 -0.83483714 -0.87620294 0.9590382
0.9536745 -0.8953855 -0.9728774 -1.072237 0.9517723 -1.0037878 1.0622929 -0.95698124
-0.7754911 -0.93821985 -0.82995886 -0.82374835 -0.790686 -0.8556967 -0.98724717 -0.80031806
0.92129457 0.85189486 -1.0261908 0.79017377 -0.852875 0.80876905 0.9776203 0.84137064
0.90298337 0.91357166 0.95557874 0.9355665 -0.890605 -0.88671386 0.7405609 0.9437306
0.85294104 -0.930661 -1.0537946 1.020038 -0.83446944 0.8585741 -1.0037947 1.0500495
1.2799711 1.0241102 1.0959615 1.1262705 1.0102184 1.1588761 1.0411241 1.140184
1.2395945 1.1440187 1.355196 1.1446311 0.9966067 1.2102748 1.2426276 1.0549933
1.2189139 1.2860036 1.368007 1.2025094 1.2163646 1.1323562 1.0893855 1.2516274
1.1530918 1.1975514 1.3840729 1.2073662 1.1449156 1.3685906 1.3225834 1.0254024
1.1597364 1.1248169 0.9596491 1.227334 1.1523685 1.19026 1.2229959 1.2183409
1.1545678 1.0966854 1.3527297 1.3248376 1.1115551 1.1966697 1.1148856 1.340596
1.0373026 1.2746513 1.0481626 1.2199978 1.3400321 1.1791295 1.2629589 1.0739276
0.9974405 1.1618923 1.2877564 1.2326112 1.0679713 1.2554656 1.2506083 1.1959475
00000000: 0395 963f 7c90 923f 4fab 813f d6a0 8b3f
00000010: 7f25 913f d66d 803f 697a 8e3f 5c07 983f
00000020: d5b1 983f 2d70 863f 1971 983f f019 933f
00000030: 0e16 963f 1be3 8b3f f6de a33f 4632 943f
00000040: b156 9a3f f687 8d3f 64ed ae3f 4fea 9c3f
00000050: 63df 913f 0f0d 853f 2ae9 873f da57 9d3f
00000060: 31ac 943f 61b2 9b3f c328 9c3f e0ab 933f
00000070: 2ff3 9b3f e40a 923f 9d99 a03f 46ed 8c3f
00000080: 63a9 903f c1f0 903f e3c0 7a3f 24c5 a53f
00000090: 7521 9e3f a71b 9c3f d8a6 9a3f d657 7b3f
000000a0: 034c 7f3f 0ac3 933f ef29 a43f 8fde a83f
000000b0: afff 923f e7d4 ad3f d59a 933f 1469 8d3f
000000c0: 3754 913f 188b a53f 10b6 873f d5fb 9a3f
000000d0: 4f65 a83f e532 833f 22a2 8f3f ae0c 803f
000000e0: a48d 893f 6ecf 9e3f e4d3 9b3f 00fd 983f
000000f0: 720d 903f 4bf5 9a3f 2d23 8e3f ae99 a53f
00000100: b029 97bc ee31 fb3d a897 56bd e03d ce3c
00000110: 3e9a 8bbd 48c3 d3bd d829 5f3d 3064 9f3d
00000120: e019 5bbc 249e 41bd 46c4 d43d 0851 77bd
00000130: 48d1 6b3d 2216 c13d 76ae 873d 6074 7d3d
00000140: 68d9 e33c 582d 90bd c4c8 dc3d 3075 a2bc
00000150: 7075 40bd d051 b33c 4eba 89bd 7847 d1bc
00000160: 348a 003d 4cd8 debd 381f 9e3c 2880 68bd
00000170: 08d5 e53d 3267 ca3d d815 ed3c 4830 543d
00000180: 1c26 953d 56de f2bd fe89 fb3d c86b 7e3d
00000190: f06f 86bc f83e 90bd cc70 2fbd 7cbc 11bd
000001a0: 348d d2bd c04f 863b 9c63 16bd c4e5 cf3d
000001b0: 84cf 28bd 6cd4 a6bd 802e c93a 3410 43bd
000001c0: dcce a6bd 881b c13d 08fa 24bd a4d7 abbd
000001d0: d4f6 f8bd a271 b03d e8d3 49bd 9c67 3a3d
000001e0: 18e5 31bd 322f f3bd acd0 50bd 6caa c73d
000001f0: a4d5 1abd 6663 f7bd b4eb 00bd 301c 2f3c
00000200: c3a1 863f ce3b 60bf f98a 73bf e47d 723f
00000210: 8546 573f 426e 34bf 0e4e 65bf ba4f 683f
00000220: bec2 7cbf eb1b 6e3f cea9 703f fb70 523f
00000230: 5afd 533f 41f6 65bf 4f22 68bf dec7 5b3f
00000240: 7543 53bf 5190 803f 4d85 803f cc52 773f
00000250: 4741 7f3f e3b7 55bf d64e 60bf 8783 753f
00000260: 0324 743f fc37 65bf 7e0e 79bf 103f 89bf
00000270: 59a7 733f 1e7c 80bf 37f9 873f b9fc 74bf
00000280: 9686 46bf 2d2f 70bf 2f78 54bf 2ce1 52bf
00000290: 666a 4abf f00e 5bbf 3bbc 7cbf a5e1 4cbf
000002a0: f6d9 6b3f c815 5a3f 385a 83bf d448 4a3f
000002b0: 0456 5abf 7d0b 4f3f 5345 7a3f 1164 573f
000002c0: eb29 673f d5df 693f cfa0 743f 4981 6f3f
000002d0: b0fe 63bf aeff 62bf 6695 3d3f 5498 713f
000002e0: 585a 5a3f cd3f 6ebf bee2 86bf 9b90 823f
000002f0: ca9f 55bf 83cb 5b3f 587c 80bf 0668 863f
00000300: 18d6 a33f 0b16 833f 7748 8c3f a229 903f
00000310: d64e 813f 0d56 943f 8e43 853f 8df1 913f
00000320: 08ab 9e3f 346f 923f 1077 ad3f 4683 923f
00000330: 9e21 7f3f 49ea 9a3f 6c0e 9f3f 050a 873f
00000340: 5f05 9c3f c49b a43f da1a af3f d4eb 993f
00000350: d6b1 9b3f 0cf1 903f fc70 8b3f 5435 a03f
00000360: 8398 933f 5d49 993f 4d29 b13f fa8a 9a3f
00000370: 988c 923f fa2d af3f 6a4a a93f 6340 833f
00000380: 3e72 943f 00fa 8f3f 90ab 753f 4819 9d3f
00000390: d080 933f 715a 983f 218b 9c3f 98f2 9b3f
000003a0: e1c8 933f 3060 8c3f 3f26 ad3f 4794 a93f
000003b0: 7047 8e3f 792c 993f 92b4 8e3f a698 ab3f
000003c0: 55c6 843f c627 a33f 312a 863f e328 9c3f
000003d0: 2c86 ab3f b7ed 963f a3a8 a13f 7676 893f
000003e0: 4358 7f3f e3b8 943f 34d5 a43f 34c6 9d3f
000003f0: 49b3 883f 19b3 a03f ef13 a03f cf14 993f

lstm.bias_hh_l0 f4 [256]
1.3292576 1.2162318 1.0158616 1.2263252 1.0689749 1.0488149 0.98269737 1.0962191
1.3342419 1.2311021 1.1243871 1.1273764 1.1717746 1.0177419 1.1521702 1.0402406
1.3040441 1.217798 1.2815462 1.2136794 1.1347042 1.1094216 1.2102175 1.292816
1.0603923 1.1703055 1.1626009 1.2586502 1.2683421 1.232978 1.3842748 0.96246284
1.1391848 1.0272807 0.97388464 1.30514 1.2168043 1.0552957 1.2237524 0.976811
1.1204461 1.1032935 1.3319144 1.245738 1.0052022 1.109331 1.1388857 1.1050787
1.2079653 1.2915195 0.9983973 1.2382042 1.3151314 1.0609554 0.9991279 0.99604815
1.0054923 1.1121264 1.1909306 1.2430671 1.0143156 1.2400384 1.2787497 1.2897733
-0.020699024 0.01713577 -0.0523635 -0.1147144 0.092044845 0.10490377 0.09609079 -0.06863548
-0.121568665 0.00095659494 0.009750798 -0.08296618 -0.07598138 -0.08649792 0.111123815 0.070489526
0.04832883 0.021012917 0.10504985 -0.042953014 0.004535809 -0.111360714 -0.0032901466 0.04625666
0.041702613 -0.08673856 -0.09026168 0.07050659 -0.07623859 -0.030609876 -0.09569794 -0.121141165
-0.048401818 0.0657258 -0.103448525 0.087897226 0.08582692 -0.05446163 0.054746985 -0.09592247
-0.01877819 0.034482226 -0.023387223 0.11176418 -0.033477023 -0.053495735 -0.02794917 0.016968459
-0.12063277 -0.12073147 0.073572636 -0.10372971 0.012004554 0.021692663 -0.046651766 -0.11444837
-0.015226409 -0.059730932 -0.014121771 -0.091980815 -0.09204452 0.02512221 0.018902004 -0.07560769
0.8997894 -0.8883499 -1.0356482 0.9215193 0.9091446 -0.913298 -0.9606186 0.7964691
-0.9593506 0.70774764 1.0045828 0.9073407 0.79497206 -0.93671376 -1.0183867 1.0276182
-0.97602874 0.78278005 0.9968901 0.93158317 0.85116047 -0.900019 -0.93276423 0.9191924
0.7928814 -1.047581 -0.9910165 -1.015938 1.0110841 -0.908331 1.044777 -0.91683143
-0.9565735 -0.950347 -0.8121673 -1.016217 -0.9654252 -0.9137691 -0.77860236 -0.88100284
0.8160515 0.7377185 -0.8090585 1.003422 -0.80888164 1.0180739 1.0159312 0.97424626
0.69726473 0.97110677 0.8129956 0.968607 -0.9688246 -0.9155195 0.94922197 0.8223239
0.84953886 -0.90046316 -1.0752423 0.8776778 -0.9219711 1.034625 -1.0350266 0.90224767
1.2309995 1.2508693 1.1206939 1.2914616 1.168797 1.1720723 1.1154753 1.155889
1.251827 1.0478376 1.3180822 1.2065499 1.1267401 1.2308463 1.3631271 1.076414
1.2761819 1.2624526 1.4090419 1.2718296 1.1859043 1.0254323 1.1310349 1.2043982
1.1801465 1.3797615 1.3588145 1.2399238 1.2472398 1.2516916 1.3204281 1.0258383
1.1706078 1.0493519 0.9267943 1.3918488 1.0535731 1.0995874 1.0327476 1.1390227
1.2074121 1.2211748 1.214669 1.3985941 1.1678094 1.2200679 1.2236009 1.2260534
1.03123 1.2989258 1.061101 1.2325016 1.372462 1.0464338 1.0968529 1.2335244
1.1471617 1.2953707 1.2998185 1.3970232 1.2182707 1.4158995 1.1961006 1.3811105
00000000: 1d25 aa3f 7cad 9b3f c107 823f 39f8 9c3f
00000010: 2bd4 883f 913f 863f 0e92 7b3f e850 8c3f
00000020: 70c8 aa3f c194 9d3f ebeb 8f3f df4d 903f
00000030: b6fc 953f 5e45 823f 507a 933f 9b26 853f
00000040: ebea a63f cee0 9b3f b509 a43f d959 9b3f
00000050: fd3d 913f 8701 8e3f 68e8 9a3f ff7a a53f
00000060: efba 873f 92cc 953f 1bd0 943f 731b a13f
00000070: 0959 a23f 39d2 9d3f eb2f b13f f763 763f
00000080: cfd0 913f ef7d 833f 8150 793f d40e a73f
00000090: 3ec0 9b3f ee13 873f eba3 9c3f 4910 7a3f
000000a0: c76a 8f3f b938 8d3f 2c7c aa3f 5874 9f3f
000000b0: 77aa 803f 8ffe 8d3f 02c7 913f 3873 8d3f
000000c0: 9b9e 9a3f 8350 a53f f796 7f3f 7a7d 9e3f
000000d0: 3a56 a83f 63cd 873f d9c6 7f3f 03fd 7e3f
000000e0: f9b3 803f 285a 8e3f 6a70 983f d31c 9f3f
000000f0: 18d5 813f 94b9 9e3f 12ae a33f 4b17 a53f
00000100: 0091 a9bc 5060 8c3c 1c7b 56bd 62ef eabd
00000110: 0282 bc3d cad7 d63d 40cb c43d c290 8cbd
00000120: fef8 f8bd 00c4 7a3a d0c1 1f3c 2cea a9bd
00000130: 209c 9bbd d225 b1bd e294 e33d d05c 903d
00000140: 74f4 453d 4823 ac3c 6024 d73d 80ef 2fbd
00000150: 20a1 943b 1611 e4bd 809f 57bb a077 3d3d
00000160: 5cd0 2a3d fca3 b1bd 1edb b8bd c265 903d
00000170: fa22 9cbd 90c1 fabc 48fd c3bd dc18 f8bd
00000180: fc40 46bd 409b 863d d2dc d3bd 7603 b43d
00000190: 06c6 af3d 2813 5fbd 603e 603d 0073 c4bd
000001a0: b8d4 99bc 3c3d 0d3d 9096 bfbc 9ee4 e43d
000001b0: 341f 09bd 581e 5bbd a8f5 e4bc 7001 8b3c
000001c0: 500e f7bd 1042 f7bd 40ad 963d 3e70 d4bd
000001d0: c0ae 443c d0b4 b13c ec15 3fbd e863 eabd
000001e0: 3078 79bc 6ca8 74bd 005f 67bc 7060 bcbd
000001f0: d681 bcbd 18cd cd3c 60d8 9a3c 34d8 9abd
00000200: 9958 663f e66a 63bf 1f90 84bf b0e8 6b3f
00000210: b3bd 683f e6cd 69bf 1aeb 75bf 66e5 4b3f
00000220: 0098 75bf f32e 353f 2b96 803f 7b47 683f
00000230: 4a83 4b3f 79cc 6fbf 7f5a 82bf fe88 833f
00000240: 05dd 79bf 4664 483f 3134 7f3f 3c7c 6e3f
00000250: a7e5 593f a567 66bf a3c9 6ebf 3150 6b3f
00000260: 47fa 4a3f 2217 86bf 42b3 7dbf 420a 82bf
00000270: 346b 813f 6188 68bf 41bb 853f 77b5 6abf
00000280: 00e2 74bf f149 73bf 32ea 4fbf 6613 82bf
00000290: 1b26 77bf c6ec 69bf 7c52 47bf 6789 61bf
000002a0: c0e8 503f 1fdb 3c3f 751e 4fbf 2270 803f
000002b0: de12 4fbf 3f50 823f 090a 823f 3468 793f
000002c0: f17f 323f 749a 783f 7b20 503f a1f6 773f
000002d0: e404 78bf 7c5f 6abf 3600 733f d283 523f
000002e0: 617b 593f c184 66bf 8aa1 89bf 7eaf 603f
000002f0: 4c06 6cbf 986e 843f c07b 84bf b4f9 663f
00000300: 6491 9d3f 7c1c a03f e672 8f3f 9d4e a53f
00000310: 249b 953f 7706 963f e5c7 8e3f 2cf4 933f
00000320: de3b a03f 8b1f 863f ebb6 a83f 3a70 9a3f
00000330: 0539 903f 5f8c 9d3f f37a ae3f efc7 893f
00000340: ee59 a33f 0c98 a13f 7c5b b43f 50cb a23f
00000350: b6cb 973f 5e41 833f c0c5 903f b829 9a3f
00000360: 0a0f 973f 069c b03f a2ed ad3f d3b5 9e3f
00000370: 8ea5 9f3f 6e37 a03f ca03 a93f ab4e 833f
00000380: 7ad6 953f 2a51 863f 6442 6d3f 1a28 b23f
00000390: 7cdb 863f 48bf 8c3f 1331 843f 7fcb 913f
000003a0: 7b8c 9a3f 754f 9c3f 467a 9b3f 2205 b33f
000003b0: c77a 953f 2f2b 9c3f f49e 9c3f 51ef 9c3f
000003c0: 58ff 833f 3343 a63f 28d2 873f 9dc2 9d3f
000003d0: d6ac af3f 8bf1 853f ad65 8c3f 21e4 9d3f
000003e0: 32d6 923f b5ce a53f 7460 a63f a8d1 b23f
000003f0: 4bf0 9b3f 323c b53f d319 993f 3bc8 b03f

fc.weight f4 [1, 64]
1.5481703 -1.1589162 -1.1370225 1.5440732 1.1606042 -1.2451183 -1.1831169 1.1961629
-1.5346884 1.2390478 1.4861578 1.1629006 1.235266 -1.1209581 -1.5493826 1.1386598
-1.542797 1.5979654 1.5705682 1.5080194 1.5987022 -1.1849791 -1.1650667 1.485828
1.1589737 -1.5867133 -1.5073009 -1.4765404 1.5259955 -1.4624593 1.4440695 -1.2006508
-1.1645501 -1.1277887 -1.1260653 -1.5000198 -1.1484616 -1.1625578 -1.1424711 -1.2136858
1.1901723 1.2231119 -1.5318923 1.5098125 -1.2178085 1.5896188 1.1091357 1.5638338
1.2646725 1.5708907 1.2230071 1.4732026 -1.4634025 -1.1717882 1.1921991 1.1966934
1.2353944 -1.5569556 -1.4426942 1.5911293 -1.149669 1.4881518 -1.5025059 1.5207956
00000000: 722a c63f 5e57 94bf f489 91bf 31a4 c53f
00000010: ae8e 943f 0960 9fbf 6070 97bf de1b 993f
00000020: ab70 c4bf 1e99 9e3f 6b3a be3f edd9 943f
00000030: 321d 9e3f 8e7b 8fbf 2b52 c6bf 9bbf 913f
00000040: 5f7a c5bf 218a cc3f 6108 c93f c806 c13f
00000050: 46a2 cc3f 65ad 97bf e820 95bf 9d2f be3f
00000060: 4059 943f 6c19 cbbf 3cef c0bf 47ff bcbf
00000070: d253 c33f de31 bbbf 45d7 b83f edae 99bf
00000080: fa0f 95bf 615b 90bf e822 90bf a600 c0bf
00000090: ca00 93bf b2ce 94bf 7e3c 92bf 0e5a 9bbf
000000a0: 9157 983f ee8e 9c3f 0c15 c4bf 8941 c13f
000000b0: 26e1 9bbf a178 cb3f 29f8 8d3f b52b c83f
000000c0: cae0 a13f f212 c93f 7f8b 9c3f e791 bc3f
000000d0: c650 bbbf 28fd 95bf fb99 983f 402d 993f
000000e0: 6721 9e3f 524a c7bf 34aa b8bf 20aa cb3f
000000f0: 5b28 93bf c27b be3f 1d52 c0bf 6ea9 c23f
